src/cifar_lenet.pt (torch, 251657 bytes, 10 tensors)

conv1.weight f4 [6, 3, 5, 5]
-0.0062111635 -0.032517217 -0.09403 -0.030780382 -0.1335124 0.06537929 0.11081949 0.15465455
0.051073294 -0.02183234 0.08031279 0.050765805 0.10896505 0.051822066 0.07414969 0.06579872
-0.09115344 -0.030152721 -0.010953364 -0.06172013 -0.13974535 -0.22880957 -0.21750322 -0.2079187
-0.23040034 -0.11846166 -0.13362086 -0.17665116 -0.1772384 -0.012885959 0.14498381 0.13263567
0.09397839 0.059404764 0.07808416 0.001391195 0.16819553 0.052816685 0.14461234 0.08013951
0.05885774 0.072654136 -0.027884336 -0.04430693 -0.010069068 -0.106194444 -0.07060049 -0.020911805
-0.15108675 -0.07438331 -0.052454695 0.107444994 -0.11075926 -0.0031533816 -0.046860717 0.15658477
0.064912714 0.03100505 0.11743037 0.15111022 -0.0034965302 -0.039229948 0.077943236 0.09161118
0.0883194 0.11846211 0.07068675 -0.01870763 -0.04809256 0.11215443 0.080474526 -0.07431551
-0.08333336 0.051537927 -0.071453065 0.015659528 -0.09792611 0.05734701 0.008314121 -0.03408856
-0.052514642 -0.0013166984 0.07502859 -0.027924547 0.045030292 -0.028057132 0.06671499 0.17310403
-0.1983899 -0.12710081 -0.036507577 0.21766831 0.08567215 -0.13899834 -0.10780791 0.0901736
-0.0030629544 -0.006311538 -0.09726922 -0.064257495 0.03615962 0.077518836 0.11990995 0.06208708
-0.060843933 0.07826118 0.08245804 0.07028276 -0.08513443 -0.09499504 0.068286024 0.15024278
0.13280004 -0.1862706 -0.05580278 -0.0011616574 0.110519215 -0.035092447 -0.17054209 -0.038745847
0.15948002 0.0763635 -0.13782498 -0.114840716 0.034255408 0.011545069 -0.07156949 0.056738038
-0.069436446 -0.002545791 0.022811377 0.059667848 0.011090796 -0.051574927 -0.14473896 -0.042025555
0.151926 0.17067087 -0.19418669 -0.23432894 -0.008027997 0.22851391 0.1308659 -0.23909916
-0.09478593 0.08200433 0.14886233 -0.07286899 -0.034186713 -0.11814623 -0.12446742 0.027627384
-0.009293803 0.057204198 0.031147232 -0.13199028 0.04530561 0.09226152 0.1266845 0.050458588
-0.13535556 -0.13919875 -0.047531 -0.02146891 -0.09355849 0.074370086 -0.11769783 -0.060028702
-0.16173394 0.03162932 0.025388274 0.08948078 -0.004222031 -0.12535617 0.12168282 -0.17603695
0.0129502 -0.08759585 0.076998465 0.0384245 -0.07272959 -0.111078404 0.060037028 0.09626083
-0.027648969 -0.13265787 -0.09615626 -0.025326135 0.03684371 0.05881448 -0.014041141 -0.08782435
-0.20882024 -0.2041709 0.016376864 -0.14778891 -0.06292225 0.0042813364 -0.19775258 -0.12719072
-0.1685552 0.039630193 0.031586614 0.09557213 0.00618202 -0.10930453 0.04414037 -0.094722606
-0.06787693 0.08435752 0.04424739 -0.13574985 -0.17379269 -0.03207081 -0.019532077 -0.004306551
-0.0037396366 -0.072173625 -0.15345633 -0.041401576 0.032979444 -0.01052653 -0.1349197 -0.07191599
-0.045211114 -0.04805598 0.06874538 0.057239983 0.10229646 0.08987335 0.0023348914 -0.06454312
0.068087935 0.08217004 0.0728921 0.07733063 0.0918513 0.058016762 0.032905493 0.064949684
-0.10629092 0.073487006 0.05548272 0.04832761 -0.028806143 0.03052767 0.03260399 -0.0947721
-0.04586386 0.05226586 -0.056573674 -0.010612746 0.09698632 0.0783601 -0.084409505 0.077917494
00000000: 0487 cbbb c630 05bd cd92 c0bd 2427 fcbc
00000010: 79b7 08be 94e5 853d 54f5 e23d c35d 1e3e
00000020: 3b32 513d bcd9 b2bc 087b a43d ceef 4f3d
00000030: 1129 df3d 6043 543d cbdb 973d 7bc1 863d
00000040: a8ae babd d702 f7bc bd75 33bc 3fce 7cbd
00000050: 6819 0fbe 0e4d 6abe 2ab9 5ebe a4e8 54be
00000060: 11ee 6bbe 079c f2bd e8d3 08be 0be4 34be
00000070: fc7d 35be a11f 53bc a376 143e a5d1 073e
00000080: be77 c03d 6952 733d 97ea 9f3d c258 b63a
00000090: 733b 2c3e 4f56 583d 4215 143e 2f20 a43d
000000a0: d014 713d b1cb 943d b16d e4bc 2f7b 35bd
000000b0: bbf8 24bc 797c d9bd fd96 90bd 3c4f abbc
000000c0: 7cb6 1abe 4756 98bd bcda 56bd 1f0c dc3d
000000d0: c0d5 e2bd f7a8 4ebb 06f1 3fbd c257 203e
000000e0: f5f0 843d 4dfe fd3c 557f f03d a3bc 1a3e
000000f0: 0b26 65bb 95af 20bd b4a0 9f3d a49e bb3d
00000100: cde0 b43d 439c f23d 37c4 903d be40 99bc
00000110: b4fc 44bd 39b1 e53d d4cf a43d bb32 98bd
00000120: aeaa aabd 6f19 533d fc55 92bd 6948 803c
00000130: 7c8d c8bd b3e4 6a3d f337 083c 72a0 0bbd
00000140: 9819 57bd 1195 acba 97a8 993d 05c2 e4bc
00000150: af71 383d 12d8 e5bc dea1 883d 2f42 313e
00000160: b926 4bbe b726 02be f888 15bd 71e4 5e3e
00000170: e174 af3d 9555 0ebe 65ca dcbd f0ac b83d
00000180: d9bb 48bb 05d1 cebb 1635 c7bd 6f99 83bd
00000190: 1c1c 143d 32c2 9e3d 5993 f53d 064f 7e3d
000001a0: 7d37 79bd 6647 a03d c3df a83d 68f0 8f3d
000001b0: f65a aebd c28c c2bd 8bd9 8b3d 3ed9 193e
000001c0: bcfc 073e b8bd 3ebe 7591 64bd c142 98ba
000001d0: e657 e23d 19bd 0fbd 96a2 2ebe f7b3 1ebd
000001e0: bb4e 233e 7764 9c3d fe21 0dbe 9c31 ebbd
000001f0: 664f 0c3d 8727 3d3c 0693 92bd 2566 683d
00000200: b234 8ebd 49d7 26bb edde ba3c 4666 743d
00000210: 2cb6 353c 3b40 53bd 7336 14be fd22 2cbd
00000220: 7d92 1b3e 58c4 2e3e e0d8 46be edf3 6fbe
00000230: dc87 03bc 8dff 693e b601 063e 69d6 74be
00000240: 201f c2bd e3f1 a73d 5e6f 183e 563c 95bd
00000250: 5e07 0cbd a7f6 f1bd c6e8 febd d352 e23c
00000260: 0945 18bc f34e 6a3d 7b28 ff3c 7628 07be
00000270: 6092 393d 9cf3 bc3d 95b9 013e aaad 4e3d
00000280: a69a 0abe 1e8a 0ebe deaf 42bd 91df afbc
00000290: 989b bfbd 584f 983d 8f0b f1bd a8e0 75bd
000002a0: 959d 25be bf8d 013d 12fb cf3c b341 b73d
000002b0: f758 8abb 5e5d 00be d834 f93d 0843 34be
000002c0: 132d 543c 7465 b3bd 5fb1 9d3d 0263 1d3d
000002d0: 40f3 94bd 137d e3bd 63e9 753d 6624 c53d
000002e0: 1780 e2bc 77d7 07be 93ed c4bd c178 cfbc
000002f0: 6ee9 163d 74e7 703d d00c 66bc 41dd b3bd
00000300: f9d4 55be 2d12 51be c628 863c fa55 17be
00000310: 61dd 80bd 744a 8c3b a77f 4abe 493e 02be
00000320: bc99 2cbe 4553 223d f760 013d 52bb c33d
00000330: 8b92 ca3b 0edb dfbd 88cc 343d edfd c1bd
00000340: 0f03 8bbd a3c3 ac3d c03c 353d 0202 0bbe
00000350: b6f6 31be af5c 03bd bc01 a0bc f81d 8dbb
00000360: b114 75bb c4cf 93bd a823 1dbe b394 29bd
00000370: 7415 073d 7877 2cbc 6428 0abe b148 93bd
00000380: 4a2f 39bd 59d6 44bd 61ca 8c3d 7974 6a3d
00000390: ce80 d13d 850f b83d fa04 193b 2f2f 84bd
000003a0: b071 8b3d c448 a83d 7448 953d 855f 9e3d
000003b0: 891c bc3d fca2 6d3d e9c7 063d 5704 853d
000003c0: 0eaf d9bd 5b80 963d d941 633d 2cf3 453d
000003d0: dcfa ebbc 2a15 fa3c c38b 053d e017 c2bd
000003e0: bedb 3bbd ba14 563d ccb9 67bd 15e1 2dbc
000003f0: c4a0 c63d 437b a03d e4de acbd 3593 9f3d

conv1.bias f4 [6]
0.102031335 0.016228143 0.017114962 0.014186883 -0.025723437 0.020590147
00000000: cef5 d03d e2f0 843c ad34 8c3c 1a70 683c
00000010: f5b9 d2bc abac a83c

conv2.weight f4 [16, 6, 5, 5]
-0.057989407 -0.08893071 -0.012173774 0.019363055 -0.075471334 0.08860266 -0.016803563 0.04642075
-0.027393946 0.03175416 0.051926937 -0.023590235 -0.056194015 0.03885945 -0.008454825 0.052948777
0.059611704 0.11349362 0.07252052 0.09008107 0.07594526 0.068294555 -0.01908941 -0.00823872
0.07204031 0.028825687 -0.0027634162 -0.005339035 -0.06350274 -0.05555331 0.004703158 -0.036515046
-0.0075202174 -0.008115982 -0.06349541 -0.053316794 0.039312072 -0.043133255 -0.02001339 0.026899766
-0.05872147 -0.07658388 0.01893575 -0.081948295 -0.024987822 -0.02549179 -0.05468215 0.07213131
-0.011377602 -0.07834269 -0.0019045856 0.009971897 -0.06922491 -0.00093300367 0.026194893 0.009736837
-0.03768218 -0.040384162 0.047137592 0.050385762 -0.037469275 0.038898017 -0.074925564 0.02439041
-0.0128622195 -0.02365243 -0.006739887 0.01803592 0.011732704 -0.052280236 0.041334663 -0.017921282
-0.0061077434 0.09794296 0.033269208 -0.017782966 0.12612881 0.08622134 0.093331635 0.0031428481
0.09549058 0.030385507 0.10631744 0.06866113 0.069256544 0.01589379 -0.0076498534 -0.03146757
-0.016958453 -0.013718938 -0.0062375995 -0.065485604 -0.071117036 -0.07755624 -0.064976506 -0.113554835
-0.08136918 -0.0705976 -0.08856187 -0.1107943 -0.013742453 0.028845659 -0.006066333 0.070753016
-0.055336162 -0.041135557 0.007817796 0.030367902 0.082403705 -0.04248837 0.064776964 -0.036062725
-0.007309453 -0.012300775 -0.010522327 0.05071414 0.041910496 0.07532835 -0.058461268 -0.04929447
0.057005234 -0.034399834 -0.018047865 0.08851782 -0.032628085 0.02893516 0.03708453 0.04607094
0.07845502 0.013108657 0.009305812 -0.02199598 0.06993043 0.06807669 -0.0018419235 -0.025512677
0.0648266 -0.06120809 -0.04761447 -0.0018402745 0.0037090804 0.04626579 -0.06224571 0.03702949
-0.06493009 0.06988734 -0.02123226 0.06708562 0.0052986634 -0.06540581 0.07246663 0.009048468
0.08274348 0.09823668 0.020991025 -0.023465035 -0.0407352 0.06818562 0.0040772175 -0.02830575
-0.0013106414 0.063587606 -0.019908378 0.073809564 0.004628256 0.084072955 0.08013682 0.07722764
-0.04961118 0.032457504 0.04994376 -0.044272214 0.034129377 0.0031079266 0.045804966 -0.07586938
0.064264186 -0.01863068 0.014435963 0.025119409 -0.032161858 0.01743707 -0.040011205 -0.049333703
-0.09011575 0.024807956 -0.046044774 -0.0014660016 0.024144886 -0.05067762 -0.05997406 0.04136297
0.06454525 0.078854375 0.017592493 -0.06605214 0.015371019 0.079032704 0.04470323 0.046720885
0.012971533 -0.05972392 -0.073275 0.058838468 0.089708984 0.027877044 0.06682792 -0.07564868
0.06830434 -0.051009905 0.011006302 -0.04572543 -0.08434104 0.07403748 0.026943551 0.029928384
0.004391644 -0.057908 -0.038227573 -0.07577829 0.011313584 -0.07608895 -0.08408357 0.06731322
-0.033868082 0.024559094 0.028420715 0.134297 0.015839264 0.06475645 0.08421984 0.05617547
0.07559123 0.018972449 -0.04101941 -0.060948387 0.05660465 0.101493135 -0.033447843 -0.020232089
0.054395933 0.06785886 0.0374085 0.0070141056 0.09522997 0.04326504 0.0888438 0.09018661
0.09449128 -0.015896365 -0.062039237 -0.01354612 -0.0037578458 0.028657597 0.04135171 -0.03809136
00000000: 4d86 6dbd 4e21 b6bd 8274 47bc 459f 9e3c
00000010: b790 9abd 5075 b53d a0a7 89bc af23 3e3d
00000020: 4569 e0bc a610 023d 57b1 543d 4f40 c1bc
00000030: b22b 66bd 162b 1f3d 1b86 0abc d1e0 583d
00000040: 672b 743d 586f e83d a385 943d 6d7c b83d
00000050: 3089 9b3d 04de 8b3d 6561 9cbc b2fb 06bc
00000060: df89 933d d923 ec3c 6e1a 35bb 12f3 aebb
00000070: b90d 82bd de8b 63bd f31c 9a3b cd90 15bd
00000080: 286c f6bb e5f8 04bc e209 82bd b662 5abd
00000090: b205 213d 7fac 30bd 1ff3 a3bc e65c dc3c
000000a0: ed85 70bd 02d8 9cbd 251f 9b3c 82d4 a7bd
000000b0: 43b3 ccbc 29d4 d0bc 64fa 5fbd 95b9 933d
000000c0: 1f69 3abc 2272 a0bd 4aa3 f9ba 2b61 233c
000000d0: cac5 8dbd d194 74ba ac96 d63c 4187 1f3c
000000e0: a158 1abd dd69 25bd 5913 413d 4d61 4e3d
000000f0: 6279 19bd 8753 1f3d 9372 99bd 66ce c73c
00000100: 0fbc 52bc bec2 c1bc 45da dcbb 11c0 933c
00000110: 873a 403c cd23 56bd 894e 293d a7cf 92bc
00000120: 7723 c8bb 5296 c83d 4b45 083d 95ad 91bc
00000130: e927 013e d094 b03d a824 bf3d 3ef8 4d3b
00000140: 9190 c33d 07eb f83c f5bc d93d 359e 8c3d
00000150: 60d6 8d3d b233 823c 9fab fabb 24e4 00bd
00000160: 74ec 8abc 66c5 60bc c764 ccbb 511d 86bd
00000170: cfa5 91bd ced5 9ebd 6712 85bd 708f e8bd
00000180: e2a4 a6bd 7995 90bd ed5f b5bd 1fe8 e2bd
00000190: 0728 61bc bb4d ec3c 17c8 c6bb f5e6 903d
000001a0: 2ca8 62bd c27d 28bd 3716 003c 1bc6 f83c
000001b0: 46c3 a83d 4908 2ebd c9a9 843d 82b6 13bd
000001c0: 2384 efbb 3189 49bc d765 2cbc a1b9 4f3d
000001d0: 57aa 2b3d c045 9a3d 1575 6fbd 00e9 49bd
000001e0: 527e 693d d7e6 0cbd 1ed9 93bc d548 b53d
000001f0: 07a5 05bd 6e09 ed3c f3e5 173d e2b4 3c3d
00000200: 07ad a03d b1c5 563c 6877 183c ea30 b4bc
00000210: af37 8f3d cb6b 8b3d b26c f1ba f6ff d0bc
00000220: cfc3 843d 56b5 7abd 6407 43bd 5e35 f1ba
00000230: 0b14 733b 3281 3d3d 5cf5 7ebd 3cac 173d
00000240: 11fa 84bd 1821 8f3d 47ef adbc 2f64 893d
00000250: 69a0 ad3b 7bf3 85bd 6269 943d 0740 143c
00000260: 6a75 a93d 5030 c93d 5ff5 ab3c bf39 c0bc
00000270: f4d9 26bd e7a4 8b3d 2e9a 853b 76e1 e7bc
00000280: d4c9 abba 383a 823d e516 a3bc 7829 973d
00000290: a0a8 973b 712e ac3d c61e a43d 8629 9e3d
000002a0: 1835 4bbd 29f2 043d d491 4c3d c856 35bd
000002b0: 3fcb 0b3d 5bae 4b3b fd9d 3b3d 6861 9bbd
000002c0: f19c 833d 5e9f 98bc d184 6c3c 38c7 cd3c
000002d0: 27bc 03bd 30d8 8e3c cae2 23bd 2312 4abd
000002e0: 9b8e b8bd 0e3a cb3c 7299 3cbd da26 c0ba
000002f0: 7fcb c53c 5693 4fbd 5ca7 75bd 386c 293d
00000300: 4d30 843d 677e a13d 221e 903c 5846 87bd
00000310: bad6 7b3c e6db a13d bc1a 373d 665e 3f3d
00000320: 8e86 543c 12a1 74bd 3411 96bd 9b00 713d
00000330: 58b9 b73d 665e e43c 14dd 883d b2ed 9abd
00000340: 25e3 8b3d c3ef 50bd c753 343c 974a 3bbd
00000350: ffba acbd f6a0 973d b9b8 dc3c 5f2c f53c
00000360: c8e7 8f3b f030 6dbd 8494 1cbd a631 9bbd
00000370: 9c5c 393c 86d4 9bbd 0234 acbd 83db 893d
00000380: 42b9 0abd 2730 c93c 8fd2 e83c 2785 093e
00000390: 58c1 813c 089f 843d 747b ac3d 4018 663d
000003a0: 93cf 9a3d 1c6c 9b3c f803 28bd 04a5 79bd
000003b0: 47da 673d a2db cf3d 9b00 09bd c4bd a5bc
000003c0: 45ce 5e3d 96f9 8a3d a839 193d 95d6 e53b
000003d0: ee07 c33d af36 313d bdf3 b53d c2b3 b83d
000003e0: a584 c13d 1839 82bc db1c 7ebd 8cf0 5dbc
000003f0: 3146 76bb 56c3 ea3c 6960 293d b005 1cbd

conv2.bias f4 [16]
0.022138821 -0.02956809 -0.00012253263 -0.046048515 0.110251285 -0.03477227 0.09881849 0.067921855
0.057213232 -0.041240864 0.100473195 -0.07600079 -0.088972926 -0.051350635 -0.005017354 0.035350267
00000000: 795c b53c c738 f2bc 1a7c 00b9 5e9d 3cbd
00000010: 6dcb e13d 5e6d 0ebd 5961 ca3d 9d1a 8b3d
00000020: 6c58 6a3d 2eec 28bd e4c4 cd3d 4da6 9bbd
00000030: 7037 b6bd 0b55 52bd 9e68 a4bb 71cb 103d

fc1.weight f4 [120, 400]
-0.03535512 0.036170367 -0.048405826 -0.008660001 -0.04047504 -0.040298015 -0.027354846 0.031748656
-0.041831344 -0.028918589 0.024565754 -0.0023387985 0.0043140627 0.023092061 0.014072339 0.00842251
-0.007410332 0.02298724 -0.0017504982 0.011259526 0.04841888 -0.016021762 0.028520832 0.03084068
-0.027052253 -0.0060971174 -0.04216275 -0.02740118 0.0374242 -0.05071248 -0.037698746 0.019279452
-0.010837432 -0.017394537 -0.04398501 0.018582912 0.01198088 -0.023695104 0.03382891 -0.03782454
-0.02205567 0.011429231 0.0004907193 0.040337667 0.0018196523 0.008210401 -0.00039803112 0.01018034
-9.883575e-05 -0.037151154 -0.045506913 0.02020767 -0.015274078 0.0464923 -0.0085053835 -0.03706935
0.029753119 0.04815987 -0.028168064 -0.028058313 0.016415078 -0.019821202 0.038409054 0.03871118
0.0050370926 0.012490825 -0.03386968 -0.021009505 -0.015328374 0.041714747 -0.028613733 0.024315245
-0.02074476 0.011183357 -0.037051395 -0.025779929 0.0060597993 -0.02717433 -0.03966482 0.01988696
0.0439315 -0.011749199 -0.034806732 0.009075826 -0.04534753 -0.019225528 0.00980775 -0.046554707
-0.029696947 -0.03516271 -0.03824419 0.042395405 -0.030793972 -0.026351996 0.04722989 0.025375042
0.023133082 0.011563057 -0.039399486 -0.0009163323 0.054194257 0.04575092 0.039903786 -0.03796847
0.021481255 0.025112735 0.024223901 -0.040505495 0.040306862 0.012835299 0.016285107 0.028716471
0.020079479 0.010686561 0.033117853 0.019936047 0.01400548 0.027921801 0.034132857 -0.0028238003
-0.028670752 -0.022752602 -0.0046291165 -0.0044135223 -0.021877747 0.00016299107 -0.017883126 -0.0119703915
-0.004254466 0.015715092 0.049398888 0.01420139 -0.010186437 0.043420397 -0.038321972 -0.0014381232
0.04584494 -0.025971591 0.029015113 -0.023394438 -0.020096859 -0.04249428 0.03173755 0.040790737
-0.047160905 0.03488236 0.03455723 -0.041033268 -0.00065027515 0.040781077 0.04748518 0.043749362
-0.022169687 -0.030325446 -0.0336589 -0.010924127 0.050144825 -0.021987434 -0.023448076 -0.03095817
0.012247255 0.010510446 -0.027023325 0.018843127 -0.028585546 0.0013640274 -0.0053129885 0.020091122
0.05104215 0.044736236 0.030392302 -0.01852394 0.023157634 0.049457032 0.015639722 0.035700556
0.0073845326 -0.021367718 -0.049602047 0.02903017 -0.022056993 -0.012457665 0.049729805 0.004463619
0.010721758 0.013421495 -0.014051774 -0.037683412 0.0011072597 -0.02789983 0.0013240601 0.051654685
-0.026876392 -0.026879959 0.02686613 -0.040552206 -0.005215234 -0.012442546 0.026092583 0.013914522
0.011031498 -0.028988522 -0.020598698 -0.04406247 -0.040461853 -0.004903575 0.029503567 -0.03908841
0.034406178 0.037009105 -0.047816254 0.04518898 0.0033680303 -0.009280745 -0.030532384 0.013597319
-0.01894692 -0.04207807 -0.043576926 -0.040973254 -0.056733828 -0.020031292 -0.043395154 0.012268468
-0.005526393 0.023253977 -0.03796751 -0.0057481513 0.028477158 -0.020004204 -0.039039902 -0.02875222
0.0007279756 0.001076047 0.02270212 0.0030251974 0.041832317 0.044450756 0.009396526 -0.0009246615
0.02715433 -0.03946976 -0.038836367 0.041601703 -0.021916866 -0.03016725 0.035846684 0.014753939
-0.029037904 -0.016504943 0.00884304 0.044005193 -0.04353568 0.016310751 0.010783192 0.04457041
00000000: 88d0 10bd 6127 143d 3045 46bd ade2 0dbc
00000010: 28c9 25bd 880f 25bd 4517 e0bc e10a 023d
00000020: 5857 2bbd ade6 ecbc 1f3e c93c 8746 19bb
00000030: fb5c 8d3b 902b bd3c ab8f 663c 91fe 093c
00000040: 5fd2 f2bb bd4f bc3c f970 e5ba e079 383c
00000050: e052 463d 1240 83bc 85a4 e93c 98a5 fc3c
00000060: b09c ddbc 54ca c7bb d9b2 2cbd 7078 e0bc
00000070: 1e4a 193d e4b7 4fbd 006a 1abd f1ef 9d3c
00000080: 7c8f 31bc fd7e 8ebc a029 34bd 313b 983c
00000090: 744b 443c 3c1c c2bc 2f90 0a3d e8ed 1abd
000000a0: 18ae b4bc ab41 3b3c 9da3 003a 1c39 253d
000000b0: 6681 ee3a eb84 063c d5ae d0b9 71cb 263c
000000c0: 0a46 cfb8 cf2b 18bd 7565 3abd 8e8a a53c
000000d0: 2040 7abc b66e 3e3d 2a5a 0bbc 08d6 17bd
000000e0: d0bc f33c 4943 453d b6c0 e6bc 8cda e5bc
000000f0: ea78 863c 1360 a2bc d052 1d3d 9d8f 1e3d
00000100: 320e a53b 51a6 4c3c efba 0abd 201c acbc
00000110: dc23 7bbc 15dd 2a3d 5967 eabc c430 c73c
00000120: eaf0 a9bc 663a 373c 34c3 17bd 6e30 d3bc
00000130: 4891 c63b b39c debc 9477 22bd fae9 a23c
00000140: 84f1 333d b67f 40bc 8191 0ebd c6b2 143c
00000150: 55be 39bd db7e 9dbc afb0 203c 26b0 3ebd
00000160: 0347 f3bc c606 10bd f1a5 1cbd cea6 2d3d
00000170: a443 fcbc 24e0 d7bc 2174 413d 52df cf3c
00000180: 9781 bd3c fa72 3d3c 5b61 21bd 0536 70ba
00000190: ccfa 5d3d 5165 3b3d 2772 233d d484 1bbd
000001a0: 75f9 af3c 39b9 cd3c 3471 c63c 17e9 25bd
000001b0: cf18 253d 254b 523c 5868 853c ce3e eb3c
000001c0: b87d a43c b016 2f3c 96a6 073d ec50 a33c
000001d0: 3e77 653c 43bc e43c e5ce 0b3d 820f 39bb
000001e0: edde eabc aa63 babc d8af 97bb 4f9f 90bb
000001f0: f638 b3bc 95e8 2a39 a27f 92bc 761f 44bc
00000200: 0c69 8bbb f0bc 803c 7d56 4a3d f2ac 683c
00000210: 03e5 26bc 96d9 313d 80f7 1cbd 687f bcba
00000220: e7c7 3b3d 60c2 d4bc 1ab1 ed3c b1a5 bfbc
00000230: 2ba2 a4bc 7b0e 2ebd 3cff 013d 3014 273d
00000240: cb2b 41bd cee0 0e3d e28b 0d3d 8012 28bd
00000250: 3a77 2aba 0f0a 273d d27f 423d 8832 333d
00000260: 349d b5bc 126d f8bc eadd 09bd 1cfb 32bc
00000270: a964 4d3d fe1e b4bc 2e16 c0bc fd9b fdbc
00000280: b6a8 483c 0134 2c3c 0560 ddbc e75c 9a3c
00000290: 3c2c eabc 2ac9 b23a 9418 aebb 2396 a43c
000002a0: 9311 513d 583d 373d 47f9 f83c 85bf 97bc
000002b0: 14b5 bd3c 7593 4a3d e01e 803c bf3a 123d
000002c0: f3f9 f13b 5a0b afbc 842b 4bbd aed0 ed3c
000002d0: deb0 b4bc 3c1b 4cbc 7bb1 4b3d 8d43 923b
000002e0: 50aa 2f3c d5e5 5b3c 6939 66bc ec59 1abd
000002f0: 7821 913a 2f8e e4bc 168c ad3a dd93 533d
00000300: e12b dcbc 5c33 dcbc 5c16 dc3c 121a 26bd
00000310: 8ee4 aabb d2db 4bbc 1dc0 d53c bcf9 633c
00000320: 75bd 343c 5679 edbc 9abe a8bc d97a 34bd
00000330: 54bb 25bd 2bae a0bb 77b1 f13c 2b1b 20bd
00000340: 7eed 0c3d dc96 173d fada 43bd 1418 393d
00000350: 2cba 5c3b 440e 18bc 0d1f fabc 4ac7 5e3c
00000360: 9236 9bbc 0e5a 2cbd b87d 32bd 92d3 27bd
00000370: bb61 68bd aa18 a4bc 1ebf 31bd af01 493c
00000380: bf16 b5bb 207f be3c d283 1bbd fd5a bcbb
00000390: ee48 e93c dbdf a3bc 4ee8 1fbd c789 ebbc
000003a0: 9ed5 3e3a 250a 8d3a ccf9 b93c 6442 463b
000003b0: 5d58 2b3d ff11 363d e3f3 193c fc64 72ba
000003c0: c272 de3c 0bab 21bd e212 1fbd 8c66 2a3d
000003d0: 008b b3bc 4f21 f7bc f9d3 123d 81ba 713c
000003e0: e6e0 edbc 6035 87bc 66e2 103c ca3e 343d
000003f0: 7852 32bd 209e 853c fcab 303c 768f 363d

fc1.bias f4 [120]
0.005044125 -0.022801574 0.0010870049 -0.014860479 0.0054409946 0.03179994 -0.022362905 -0.04527753
-0.0052415486 -0.028151348 0.032996822 -0.05730139 0.038451575 -0.002891723 0.011012898 -0.039786115
0.031736583 -0.004144818 -0.020669853 0.027857013 0.0021572611 -0.017410414 0.047854744 0.008246301
0.048158195 0.037738703 0.030036189 -0.040184285 0.0019546782 0.06809243 -0.004100974 -0.012680648
0.020429801 0.034561608 -0.026243322 0.058215648 0.047948476 0.006556641 -0.006254839 0.0030643311
0.033191238 0.054798093 0.044521637 0.010986782 -0.008459436 0.010956562 0.017046263 0.01917417
0.042208053 0.0113456175 -0.025046764 -0.005559956 -0.0016502548 -0.022122134 0.044239126 -0.049608205
0.039030954 -0.0023356886 -0.028414872 0.0036953797 -0.03144918 0.04129216 -0.014572012 0.045287743
-0.03661053 0.048274912 -0.015098441 -0.00014806147 0.015238116 0.009937706 -0.046381325 0.010730842
0.04382547 0.031052373 0.04636505 -0.02368001 0.0155013865 0.01858261 0.005585052 -0.003053247
-0.032635663 -0.028617414 -0.013780685 0.058944013 -0.007458713 0.040114116 0.013078089 0.012696771
0.036636975 -0.04925178 0.0066654817 0.043705307 -0.011884801 0.043980215 -0.013846539 -0.0024521006
0.049059696 0.025273805 -0.025469955 0.045632694 -0.0024735036 0.016354734 0.019222995 0.034599815
0.02139586 0.045699235 -0.048949197 -0.02198264 -0.0024749727 0.029793197 -0.0031801017 0.045170892
0.056587566 -0.014623237 -0.0016290523 0.012555354 -0.03251398 0.027914485 -0.014808414 -0.03657659
00000000: 3049 a53b 5eca babc d579 8e3a 5e79 73bc
00000010: 5f4a b23b a740 023d 6932 b7bc ee74 39bd
00000020: 4cc1 abbb a89d e6bc ad27 073d ddb4 6abd
00000030: 667f 1d3d 1083 3dbb 716f 343c c4f6 22bd
00000040: 38fe 013d 41d1 87bb d353 a9bc 6434 e43c
00000050: d660 0d3b 49a0 8ebc 5603 443d 7e1b 073c
00000060: 8741 453d e693 1a3d 740e f63c 4798 24bd
00000070: 0f1a 003b 0b74 8b3d 7761 86bb 7ec2 4fbc
00000080: 665c a73c 7990 0d3d 3cfc d6bc 8873 6e3d
00000090: 9f65 443d 17d9 d63b 64f5 ccbb f2d2 483b
000000a0: 89f3 073d f773 603d 525c 363d e701 343c
000000b0: 7299 0abc 2783 333c 9ba4 8b3c 2613 9d3c
000000c0: 5ae2 2c3d f8e2 393c df2e cdbc 4b30 b6bb
000000d0: 5d4d d8ba 7a39 b5bc 1634 353d f931 4bbd
000000e0: ecde 1f3d 5a12 19bb 4ec6 e8bc 2f2e 723b
000000f0: dbd0 00bd f821 293d 73bf 6ebc a47f 393d
00000100: ecf4 15bd eabb 453d 745f 77bc f340 1bb9
00000110: 4aa9 793c c3d1 223c 58fa 3dbd 6ad0 2f3c
00000120: 5682 333d 8c61 fe3c 47e9 3d3d 95fc c1bc
00000130: 87f9 7d3c 8f3a 983c d002 b73b fc18 48bb
00000140: f9ac 05bd 116f eabc 62c8 61bc 476f 713d
00000150: 3868 f4bb b34e 243d 7b45 563c 1e06 503c
00000160: a710 163d 3cbc 49bd 1d6a da3b 5604 333d
00000170: 78b8 42bc 9924 343d 98dc 62bc 6cb3 20bb
00000180: d2f2 483d 030b cf3c 5ea6 d0bc 59e9 3a3d
00000190: 811a 22bb 5dfa 853c 8b79 9d3c 89b8 0d3d
000001a0: 5f46 af3c 1f2f 3b3d f47e 48bd f014 b4bc
000001b0: 2733 22bb dd10 f43c 4169 50bb 1d05 393d
000001c0: 5dc8 673d 4d96 6fbc ed85 d5ba f9b4 4d3c
000001d0: 612d 05bd ebac e43c fd9e 72bc 56d1 15bd

fc2.weight f4 [84, 120]
-0.019938068 -0.06892678 -0.008281935 0.003042497 -0.07761816 -0.08854098 -0.015546324 -0.07136925
0.009304252 0.04871859 0.015093179 0.016955044 0.038189705 0.05866242 -0.028411336 -0.080391504
0.02816006 -0.074728146 0.03638415 -0.045262106 0.08816028 -0.06585188 -0.025415307 0.016259499
-0.062645644 0.07084789 0.05977857 0.055251878 -0.06216098 -0.082020186 0.071004525 -0.059204977
-0.07607294 -0.053533822 0.004973599 -0.018550644 -0.042799827 0.029090468 0.007363921 0.010887352
0.06735003 -0.015312594 0.0517327 0.056164283 -0.07551609 0.017003592 0.011233704 -0.06795913
0.06621594 -0.08399404 0.089387484 -0.04625444 0.033606622 -0.07564624 -0.029729782 0.03683385
0.083561584 -0.029805422 -0.069697164 0.04903726 0.081690244 0.030156339 -0.05671259 0.028554264
0.01828952 -0.07977112 0.08546539 -0.0754677 0.081271924 -0.0007161895 -0.018221889 -0.05614998
-0.0796289 0.0013640021 -0.06218268 -0.07918298 0.021284267 -0.0011889111 -0.049364958 0.016877357
0.0690057 0.07219542 -0.052010365 -0.07093322 0.066471204 -0.08397282 -0.03256776 0.053324092
-0.07877036 0.04641474 -0.035476316 0.008588857 -0.08351754 -0.069105014 0.04903347 0.07263202
-0.051295377 -0.042342238 0.010799803 0.05194781 -0.057626948 0.02015325 0.06652026 0.058740802
-0.061863467 0.08842047 -0.017736567 0.046178408 0.00855424 0.063220434 0.03570501 0.038586404
0.081444465 -0.03954767 -0.045108106 -0.054373518 -0.00467763 -0.08822688 -0.033431426 0.08310822
-0.07846991 -0.06801346 -0.07208365 -0.052738678 -0.033419862 0.07707147 0.005140064 -0.06494896
0.016806785 0.06814228 -0.00965021 -0.07649353 -0.042459384 -0.04412052 0.026072145 -0.02842485
0.0068954392 0.009226724 -0.06416028 0.0478814 -0.038527735 -0.011735193 -0.008672392 0.049537368
-0.009977435 -0.031262472 -0.039693225 -0.0007404025 -0.014029417 -0.08486368 0.029526802 -0.06557689
-0.04888268 0.022079647 -0.06887272 -0.01646529 0.016994338 0.014094609 0.016730638 0.04445372
-0.0033787184 -0.03842909 0.071846426 0.03501959 0.04413896 0.030208204 0.011955434 -0.08626003
0.04568883 0.072555415 0.040516157 0.02190915 -0.046747062 0.033994567 -0.028279016 0.047506846
-0.07828114 -0.008618962 -0.012282165 -0.07826732 -0.00065536407 -0.0044123777 0.00972517 0.01491169
0.08706214 -0.03665489 0.042420074 -0.036237407 -0.0033829664 -0.06201266 0.042725924 -0.005322126
-0.07832458 0.03461279 -0.07190708 -0.041790802 -0.07759939 0.06803006 -0.079526484 -0.034955822
0.018200653 0.06816898 -0.020027624 0.025827853 -0.050115984 0.009521966 0.06863464 -0.022364143
0.06769854 -0.03072139 -0.02903482 0.036991216 -0.06998457 -0.052640546 0.06284287 0.07792418
-0.044402283 -0.023752565 -0.05991212 -0.08488485 0.005620847 -0.030069668 0.03117341 0.08037336
0.040477525 0.03268529 -0.005046602 -0.007356916 0.050387226 -0.027512096 0.06527683 -0.046467822
-0.07515141 0.058680374 -0.01944434 0.026793718 0.011668199 -0.09695373 -0.060838956 0.060704507
-0.052099373 0.05981659 -0.06478015 0.0587749 0.044846267 -0.01054418 0.05745146 -0.018024547
0.0357057 0.038490668 0.010514957 0.06060609 0.0010293131 -0.08915738 0.00038448765 0.05706249
00000000: 2955 a3bc 7c29 8dbd f4b0 07bc a164 473b
00000010: 45f6 9ebd f954 b5bd 02b6 7ebc 0b2a 92bd
00000020: dd70 183c 258d 473d 6249 773c 4ee5 8a3c
00000030: cf6c 1c3d 0148 703d e4be e8bc 4da4 a4bd
00000040: edaf e63c 120b 99bd 8c07 153d c264 39bd
00000050: 608d b43d 5add 86bd c333 d0bc a432 853c
00000060: 5c4c 80bd b318 913d 60da 743d cb4f 623d
00000070: 839c 7ebd 33fa a7bd d26a 913d eb80 72bd
00000080: 21cc 9bbd 4846 5bbd 93f9 a23b 85f7 97bc
00000090: df4e 2fbd 224f ee3c 0c4d f13b dd60 323c
000000a0: d0ee 893d ade1 7abc abe5 533d 850c 663d
000000b0: 2ea8 9abd 1e4b 8b3c 920d 383c 282e 8bbd
000000c0: 399c 873d 1105 acbd c910 b73d 4c75 3dbd
000000d0: 19a7 093d 6aec 9abd df8b f3bc 17df 163d
000000e0: 5622 ab3d 802a f4bc 63bd 8ebd 4bdb 483d
000000f0: 374d a73d 6d0a f73c 764b 68bd a2ea e93c
00000100: e7d3 953c 0a5f a3bd 7a08 af3d cf8e 9abd
00000110: e571 a63d aabe 3bba 1246 95bc 85fd 65bd
00000120: 7a14 a3bd 51c8 b23a 44b3 7ebd b02a a2bd
00000130: 585c ae3c 3dd5 9bba e932 4abd 6242 8a3c
00000140: dc52 8d3d 31db 933d d208 55bd 7045 91bd
00000150: 0e22 883d f1f9 abbd c665 05bd 5d6a 5a3d
00000160: 5b52 a1bd 621d 3e3d 9d4f 11bd 47b8 0c3c
00000170: 3e0b abbd ee86 8dbd 52d7 483d 19c0 943d
00000180: 1a1b 52bd 0e6f 2dbd a8f1 303c 3ac7 543d
00000190: 3c0a 6cbd 6e18 a53c c63b 883d 329a 703d
000001a0: 8c64 7dbd cb15 b53d 474c 91bc 9225 3d3d
000001b0: 1527 0c3c b779 813d 6b3f 123d c70c 1e3d
000001c0: 5bcc a63d bdfc 21bd 47c3 38bd c4b6 5ebd
000001d0: ce46 99bb 4bb0 b4bd 64ef 08bd a434 aa3d
000001e0: d5b4 a0bd a44a 8bbd 98a0 93bd 8304 58bd
000001f0: 44e3 08bd a6d7 9d3d fb6d a83b f603 85bd
00000200: 62ae 893c 2e8e 8b3d ea1b 1ebc a4a8 9cbd
00000210: e4e9 2dbd b8b7 34bd 4095 d53c 3bdb e8bc
00000220: 23f3 e13b af2b 173c 7766 83bd 491f 443d
00000230: 42cf 1dbd f844 40bc a616 0ebc b2e7 4a3d
00000240: 6578 23bc 140d 00bd 5d95 22bd 9217 42ba
00000250: a4db 65bc 02cd adbd 31e2 f13c 2d4d 86bd
00000260: 3439 48bd 60e0 b43c 240d 8dbd 37e2 86bc
00000270: b637 8b3c 13ed 663c b10e 893c 1b15 363d
00000280: 7d6d 5dbb d267 1dbd 3824 933d b470 0f3d
00000290: 0ecb 343d 3277 f73c bae0 433c 19a9 b0bd
000002a0: 3624 3b3d ef97 943d 45f4 253d d17a b33c
000002b0: d979 3fbd e33d 0b3d 65a9 e7bc 8a96 423d
000002c0: dd51 a0bd 8c36 0dbc 223b 49bc 9e4a a0bd
000002d0: bdcc 2bba b595 90bb 5256 1f3c 2950 743c
000002e0: a34d b23d 7023 16bd acc0 2d3d ad6d 14bd
000002f0: c2b4 5dbb fd00 7ebd 6101 2f3d 3b65 aebb
00000300: a368 a0bd 24c6 0d3d 0544 93bd d52c 2bbd
00000310: 6eec 9ebd 5853 8b3d c8de a2bd d62d 0fbd
00000320: 8919 953c 2e9c 8b3d f910 a4bc ef94 d33c
00000330: 6b46 4dbd 0502 1c3c 5190 8c3d 0235 b7bc
00000340: 88a5 8a3d 6dab fbbc 6eda edbc 1a84 173d
00000350: 1254 8fbd 9d9d 57bd c3b3 803d b696 9f3d
00000360: 2bdf 35bd bd94 c2bc 6966 75bd 1cd8 adbd
00000370: 152f b83b aa54 f6bc 615f ff3c ca9a a43d
00000380: c3cb 253d 03e1 053d f75d a5bb 4912 f1bb
00000390: d662 4e3d 0c61 e1bc dcaf 853d 0b55 3ebd
000003a0: fce8 99bd d55a 703d bd49 9fbc 807e db3c
000003b0: f92b 3f3c ad8f c6bd 4532 79bd 4aa5 783d
000003c0: 2766 55bd 3e02 753d 75ab 84bd f3bd 703d
000003d0: b8b0 373d 7fc1 2cbc 3952 6b3d 37a8 93bc
000003e0: 2440 123d 64a8 1d3d ed46 2c3c 173e 783d
000003f0: 04ea 863a 2598 b6bd 0f95 c939 5cba 693d

fc2.bias f4 [84]
-0.07430927 -0.031913467 -0.06271934 -0.07404862 0.071443655 0.043783814 0.048440028 -0.06049409
-0.02349465 0.044602826 0.01285279 -0.048481192 0.04678972 -0.024613108 -0.011592063 0.041792225
-0.059349906 0.08208499 0.06437343 0.006754133 -0.027908998 -0.070236765 0.07698956 0.013451665
-0.01833146 -0.06752052 -0.02817464 -0.0636231 -0.02442925 -0.015734166 -0.018974068 -0.051237434
0.0065403553 0.101194166 0.019323215 0.0678437 0.039913427 -0.06296833 0.000699877 -0.020580303
-0.03140626 0.012678287 0.101374306 -0.08783976 0.11204914 0.08712911 0.03701456 -0.024463663
0.039719686 -0.012362227 0.014185439 0.02243717 0.022629172 0.09343582 0.06677695 0.037448306
-0.06938786 -0.093128115 0.013573933 -0.07070149 -0.09492403 0.006426046 0.03456656 0.010653527
-0.039198544 -0.011040006 -0.035107248 0.02734746 -0.06504442 -0.05737802 -0.0011289857 0.010792118
-0.08216158 -0.0017454238 0.09213053 0.10255608 -0.04942281 0.09565289 -0.09077745 0.079614624
-0.037313472 0.011765418 -0.07006339 0.04955884
00000000: 752f 98bd b2b7 02bd ff72 80bd cea6 97bd
00000010: 0d51 923d a856 333d 0d69 463d a7c8 77bd
00000020: da77 c0bc 74b1 363d 8294 523c 3794 46bd
00000030: 94a6 3f3d 6ea1 c9bc a3ec 3dbc 532e 2b3d
00000040: e318 73bd 2d1c a83d 38d6 833d c651 dd3b
00000050: 69a1 e4bc 4bd8 8fbd b4ac 9d3d 5f64 5c3c
00000060: dc2b 96bc 3348 8abd 81ce e6bc d44c 82bd
00000070: da1f c8bc f0e4 80bc 816f 9bbc 58de 51bd
00000080: 7a50 d63b e33e cf3d b84b 9e3c a3f1 8a3d
00000090: 437c 233d 8af5 80bd f377 373a 0698 a8bc
000000a0: daa3 00bd 97b8 4f3c 559d cf3d 55e5 b3bd
000000b0: 057a e53d bf70 b23d 949c 173d 0568 c8bc
000000c0: 1cb1 223d f08a 4abc 0b6a 683c 28ce b73c
000000d0: d060 b93c 475b bf3d 5bc2 883d 6563 193d
000000e0: 391b 8ebd f4b9 bebd 3465 5e3c f1cb 90bd
000000f0: 8867 c2bd 9591 d23b aa95 0d3d 228c 2e3c
00000100: a78e 20bd 24e1 34bc 9ecc 0fbd c807 e03c
00000110: 0236 85bd 3705 6bbd 79fa 93ba 6cd1 303c
00000120: 5544 a8bd b4c6 e4ba eeae bc3d ec08 d23d
00000130: 936f 4abd aae5 c33d 87e9 b9bd fe0c a33d
00000140: 03d6 18bd bdc3 403c 657d 8fbd 36fe 4a3d

fc3.weight f4 [10, 84]
-0.050710708 0.005691547 -0.10135874 -0.023211388 -0.04565373 0.11219435 0.09716118 -0.13352035
0.015276763 -0.054926693 0.023287458 -0.068926536 0.022966396 -0.06297072 0.12817656 -0.21069595
0.04063392 -0.10759096 0.12944013 0.014468522 -0.018877314 -0.0050477698 -0.032645714 0.13823676
0.15929323 0.1070855 -0.06316644 -0.05758 0.057873283 -0.083788216 0.10381484 0.03437322
0.018943299 -0.081982024 -0.008481619 -0.17382953 -0.113747865 -0.018137055 0.033885717 -0.07687723
0.047013864 -0.029143207 -0.032948066 0.017415443 -0.03500823 -0.07431879 0.15371633 -0.01214044
0.09703904 -0.12204911 0.0017698979 -0.07044064 -0.011597728 -0.07298681 -0.010651374 -0.14328192
-0.0992715 -0.09394233 -0.03410914 -0.08656266 0.037876796 0.09893514 -0.16064523 -0.027889881
0.05775556 -0.1386793 0.12519215 -0.080285266 -0.0018048754 0.060283296 0.07725636 -0.14786287
0.015967473 -0.10802349 0.12089677 0.0595498 -0.17482446 0.07823509 -0.11319471 0.16955422
0.05670505 0.10085889 -0.093423314 -0.04211501 0.10366447 -0.004405299 -0.052045982 -0.021176582
0.049252234 0.01606642 -0.078415744 -0.08270235 0.053050913 -0.0796991 -0.09957674 -0.09100603
0.10512564 -0.040264085 0.026744163 0.08287668 0.018604472 0.08934784 0.060325917 -0.036178768
-0.08458155 0.02638916 0.027502775 -0.03872193 -0.036017727 0.06384571 0.008712098 0.029190602
-0.09614208 0.105052985 -0.032196995 0.05949262 -0.04945872 0.014938843 0.08121433 -0.004179043
0.043577895 0.058224738 -0.096756734 -0.0065571475 -0.09577073 -0.018742802 0.07040716 0.048830025
-0.022697743 0.0017000926 -0.05167792 0.070838094 -0.09313811 -0.09892746 0.031199945 0.055191547
-0.09814482 -0.07122201 -0.006795892 -0.08377606 -0.035162672 0.10125851 -0.070126124 -0.011268819
-0.014973286 0.091070294 -0.05294213 0.08352712 0.09759999 -0.081009045 -0.066234834 -0.05464511
-0.1008588 -0.044879068 -0.025777359 0.025216695 -0.0567902 0.03495327 0.09588617 0.10011303
-0.09186682 -0.038894493 -0.103382364 0.105306916 -0.061615203 0.037437763 0.08417867 -0.10572423
0.07102474 -0.09846453 -0.017163275 -0.041431483 -0.0041083256 -0.032877088 0.12563488 -0.09003276
-0.12539774 0.011081104 -0.0038955275 -0.10412299 -0.027790546 0.06543297 -0.11442567 -0.116551615
0.05451425 -0.0065555144 -0.13473785 0.121970475 -0.050117873 -0.04031176 0.090449 0.10345467
-0.0051329387 0.13278666 -0.030397864 0.06738686 -0.057327792 -0.025788566 -0.02689227 -0.010689324
-0.08173299 0.08978072 0.09917813 0.097184524 -0.042393103 -0.1382412 0.049026426 -0.17225417
-0.0906444 0.14864634 -0.018602937 -0.057124116 -0.022803543 0.20590542 0.027141768 0.050106473
-0.039372925 -0.09949932 0.043616183 -0.061508767 -0.009270932 0.0949415 -0.060745675 0.121878035
-0.03378549 0.012549332 0.10839549 -0.098597094 -0.09728742 0.14606696 0.043537363 0.07633363
-0.10395156 -0.004365654 -0.04948925 -0.08665272 -0.12834108 -0.014524079 0.16126215 -0.09812329
0.056229893 0.0023342464 0.03286221 0.089209616 -0.13219327 0.07255126 0.074189596 0.17069928
0.009204138 0.12786593 0.06755778 0.075601265 -0.049672786 -0.030960191 -0.090835124 -0.056759868
00000000: 08b6 4fbd 2880 ba3b 2c95 cfbd cf25 bebc
00000010: 68ff 3abd 27c6 e53d 71fc c63d 8fb9 08be
00000020: 634b 7a3c d0fa 60bd 57c5 be3c 5b29 8dbd
00000030: 0624 bc3c cbf6 80bd b740 033e aec0 57be
00000040: c16f 263d a658 dcbd f48b 043e 610d 6d3c
00000050: 99a4 9abc c367 a5bb 83b7 05bd f08d 0d3e
00000060: c41d 233e a54f db3d 685d 81bd 02d9 6bbd
00000070: 890c 6d3d 2899 abbd e09c d43d efca 0c3d
00000080: fa2e 9b3c 31e6 a7bd 7df6 0abc 5e00 32be
00000090: a4f4 e8bd 2994 94bc c0cb 0a3d cf71 9dbd
000000a0: 9c91 403d bcbd eebc 8df4 06bd d5aa 8e3c
000000b0: ca64 0fbd 7334 98bd d067 1d3e b2e8 46bc
000000c0: 67bc c63d e2f4 f9bd ebfb e73a 2f43 90bd
000000d0: 6604 3ebc 1c7a 95bd 1a83 2ebc 7fb8 12be
000000e0: db4e cbbd d664 c0bd 07b6 0bbd c447 b1bd
000000f0: b324 1b3d 829e ca3d 2f80 24be 5279 e4bc
00000100: 1891 6c3d f201 0ebe 5f32 003e 9a6c a4bd
00000110: 9291 ecba 9eeb 763d 9538 9e3d 5d69 17be
00000120: 38ce 823c 6b3b ddbd ba98 f73d 7eea 733d
00000130: 2f05 33be b839 a03d a1d2 e7bd 9f9f 2d3e
00000140: 8e43 683d 1b8f ce3d b954 bfbd ca80 2cbd
00000150: 0a4e d43d 545a 90bb 2b2e 55bd 837a adbc
00000160: b6bc 493d ba9d 833c 6f98 a0bd da5f a9bd
00000170: ea4b 593d 4839 a3bd e4ee cbbd 5f61 babd
00000180: 1d4c d73d f4eb 24bd 9316 db3c 40bb a93d
00000190: 6868 983c 00fc b63d 4f18 773d 3030 14bd
000001a0: 1739 adbd 142e d83c 804d e13c e39a 1ebd
000001b0: 5387 13bd 8ac1 823d 30bd 0e3c 2121 ef3c
000001c0: 24e6 c4bd 0526 d73d ffe0 03bd 89ae 733d
000001d0: 3a95 4abd 0dc2 743c b353 a63d 5bf0 88bb
000001e0: bc7e 323d 107d 6e3d 6528 c6bd 57dd d6bb
000001f0: 7223 c4bd 818a 99bc a131 903d fe01 483d
00000200: 9ef0 b9bc a4d5 de3a 3aac 53bd 9013 913d
00000210: 32bf bebd 7b9a cabd 0797 ff3c 8810 623d
00000220: 2700 c9bd d8dc 91bd 13b0 debb c892 abbd
00000230: bc06 10bd 9f60 cf3d 499e 8fbd daa0 38bc
00000240: 8352 75bc 1083 ba3d d9d9 58bd 4410 ab3d
00000250: 81e2 c73d 12e8 a5bd 21a6 87bd 8dd3 5fbd
00000260: 0f8f cebd 1dd3 37bd 0a2b d3bc 3e93 ce3c
00000270: d79c 68bd 292b 0f3d f85f c43d 0f08 cd3d
00000280: ac24 bcbd d54f 1fbd 22ba d3bd 27ab d73d
00000290: 3960 7cbd 5758 193d de65 ac3d f285 d8bd
000002a0: 6b75 913d c6a7 c9bd ff99 8cbc 0fb4 29bd
000002b0: 229f 86bb 20aa 06bd 6ea6 003e 1863 b8bd
000002c0: 4468 00be 858d 353c 1b4c 7fbb 6f3e d5bd
000002d0: 00a9 e3bc b901 863d 0158 eabd 9db2 eebd
000002e0: 564a 5f3d a4cf d6bb b8f8 09be a8cb f93d
000002f0: 6648 4dbd f21d 25bd 533d b93d 0be0 d33d
00000300: 3632 a8bb 3af9 073e f104 f9bc 1f02 8a3d
00000310: 8cd0 6abd 8b42 d3bc 2e4d dcbc 4622 2fbc
00000320: a063 a7bd f4de b73d e71d cb3d ae08 c73d
00000330: 64a4 2dbd 1a8f 0dbe efcf 483d 6663 30be
00000340: c5a3 b9bd bf36 183e 3065 98bc fafa 69bd
00000350: 7fce babc dfd8 523e 6a58 de3c 723c 4d3d
00000360: 8145 21bd 4dc6 cbbd e2a6 323d 9ef0 7bbd
00000370: 1be5 17bc b070 c23d 75d0 78bd 319b f93d
00000380: a762 0abd b79b 4d3c 74fe dd3d 46ed c9bd
00000390: a03e c7bd 9492 153e 3c54 323d ce54 9c3d
000003a0: 8ee4 d4bd c30d 8fbb 3db5 4abd fb76 b1bd
000003b0: d86b 03be 67f6 6dbc e821 253e ddf4 c8bd
000003c0: 5151 663d 28fa 183b 869a 063d 88b3 b63d
000003d0: ac5d 07be c195 943d b7f0 973d cbcb 2e3e
000003e0: f4cc 163c 49ef 023e bc5b 8a3d d6d4 9a3d
000003f0: b175 4bbd 3aa0 fdbc c407 babd 097d 68bd

fc3.bias f4 [10]
0.07287609 -0.033306714 0.3390261 -0.037579805 -0.07405909 0.01346937 0.14370792 -0.046178482
0.19454537 -0.16600065
00000000: 0f40 953d 9f6c 08bd d494 ad3e 48ed 19bd
00000010: 4bac 97bd a2ae 5c3c 2b28 133e a625 3dbd
00000020: e736 473e 13fc 29be
