src/mnist_lenet.pt (torch, 181321 bytes, 10 tensors)

conv1.weight f4 [6, 1, 5, 5]
0	0x3d694e7b	0.05695961
1	0x3d47a026	0.048736714
2	0xbd590ebf	-0.05299258
3	0x3d166cc3	0.036724817
4	0xbd9f6e87	-0.07784753
5	0x3dca325f	0.09872889
6	0x3e620b83	0.22074704
7	0x3ea24129	0.31690338
8	0x3e3611a4	0.17780167
9	0x3de9d052	0.11416687
10	0x3df95ca1	0.12175871
11	0x3dedcaf0	0.11610973
12	0x3e77ae1c	0.24187511
13	0x3e652a61	0.22379448
14	0x3ea0150a	0.31266052
15	0x3e1303aa	0.14356866
16	0xbdbeab01	-0.0930996
17	0x3c846052	0.01615921
18	0x3dc41ba9	0.09575588
19	0x3dbfdf6b	0.093687855
20	0xbe4d8d2e	-0.20073387
21	0xbea914de	-0.33023733
22	0xbe9e6047	-0.3093283
23	0xbe9adfe4	-0.3024894
24	0xbe865b12	-0.26241356
25	0xbe67e043	-0.22644143
26	0xbe37d1d4	-0.17951137
27	0xbe261de9	-0.16222347
28	0xbdcc1c27	-0.09966307
29	0x3e6159c4	0.22006899
30	0x3e66fa29	0.22556366
31	0x3e9b75be	0.30363268
32	0x3ea769e3	0.32697973
33	0x3e9ef458	0.31045794
34	0x3e8e1ef2	0.27757984
35	0x3dec7749	0.11546189
36	0x3f04a3af	0.5181226
37	0x3eb6ade4	0.35679543
38	0x3efee77b	0.4978598
39	0x3e9716c2	0.2950955
40	0x3ec2ee74	0.3807255
41	0x3ef25771	0.47332337
42	0x3e85105a	0.25989038
43	0x3e26568f	0.16243957
44	0x3e4c94c6	0.19978628
45	0x3de0d44c	0.109779924
46	0x3e5c30bd	0.21502967
47	0x3e87b5d5	0.26505914
48	0xbd75b116	-0.059983335
49	0x3d284711	0.0410834
50	0xbe084663	-0.133081
51	0x3e803515	0.25040498
52	0xbd877d14	-0.06615654
53	0x3df5657e	0.11982249
54	0x3beea176	0.0072824312
55	0x3e2b6f3e	0.16741654
56	0x3d817036	0.06320231
57	0x3daa974d	0.083296396
58	0x3e940886	0.28912753
59	0x3e978652	0.29594666
60	0xbd7ed01f	-0.0622102
61	0xbe02aaaf	-0.12760423
62	0x3dcf595c	0.10124466
63	0x3e3b6ab1	0.18302418
64	0x3e0fc1f2	0.14038828
65	0x3e6eda2e	0.23325416
66	0x3de160ed	0.11004815
67	0xbda34894	-0.079728276
68	0xbde7490e	-0.11293231
69	0x3e401b11	0.18760325
70	0x3e34bcad	0.17650099
71	0xbdfb8837	-0.1228184
72	0xbe36156c	-0.1778161
73	0x3cf11d98	0.029433057
74	0xbe218fd3	-0.15777521
75	0xbd58ac3b	-0.052898627
76	0xbe047d11	-0.12938334
77	0x3e241d29	0.16026749
78	0xbc1156e5	-0.008870815
79	0xbdd93d19	-0.106073566
80	0xbe2eba7e	-0.17063329
81	0xbce98751	-0.028506907
82	0x3e483db5	0.1955479
83	0x3d85b1b0	0.06528032
84	0x3e4140d9	0.18872394
85	0xbe035ded	-0.12828799
86	0xbc434925	-0.0119192945
87	0x3e9458d8	0.28974032
88	0xbe22e4a3	-0.1590753
89	0xbd9f15ac	-0.077678055
90	0xbe1d8624	-0.15383202
91	0x3e7761ce	0.24158403
92	0x3e2e672d	0.17031546
93	0xbd986568	-0.07441217
94	0xbdfa1586	-0.122111365
95	0x3d970159	0.07373304
96	0xbb3cb96b	-0.002879704
97	0x3df2ff18	0.118650615
98	0xbdc4a993	-0.09602656
99	0xbe1e01df	-0.15430401
100	0x3df33ef9	0.118772455
101	0x3ec13976	0.37739152
102	0x3ecfa62d	0.4055647
103	0x3e1f5a13	0.15561704
104	0xbdc5ba47	-0.0965467
105	0x3e3faaa0	0.18717432
106	0x3e9fd27b	0.3121527
107	0x3ea9b5e9	0.331466
108	0x3d7ad7cb	0.061240952
109	0x3ccbccc4	0.024877913
110	0x3e13538f	0.14387344
111	0x3e73590f	0.23764442
112	0x3ea74184	0.32667172
113	0x3d9ca02c	0.07647738
114	0x3e83fd41	0.25779155
115	0xbd14f411	-0.036365572
116	0x3d405bc8	0.04696253
117	0x3c6c9ffc	0.01444244
118	0x3e032d67	0.12810288
119	0x3e9a30a2	0.3011523
120	0x3e556400	0.20838928
121	0x3ddd8cd1	0.10817874
122	0xbdbfde3a	-0.09368558
123	0x3d5a49a7	0.053292897
124	0x3e9ca7d3	0.3059679
125	0x3cb3f110	0.021965533
126	0xbd917dc8	-0.07104069
127	0x3e0272d1	0.12739111
128	0xbe0f5c2c	-0.14000005
129	0xbb284aa6	-0.002567926
130	0x3d69bd58	0.057065338
131	0x3e00a823	0.12564139
132	0x3d09e8d7	0.03366932
133	0xbd196097	-0.03744563
134	0xbe32412c	-0.17407674
135	0xbd549782	-0.0519023
136	0x3e62bef7	0.2214316
137	0x3e7f4738	0.24929512
138	0xbe645488	-0.22297871
139	0xbe8d38da	-0.27582437
140	0xbd975890	-0.07389939
141	0x3ea88de7	0.32920763
142	0x3e810cce	0.25205082
143	0xbe8fa028	-0.28051877
144	0xbd7266a8	-0.059179932
145	0x3d42713b	0.047471266
146	0x3e95a41c	0.29226768
147	0x3cab831a	0.020936538
148	0x3d44a5fc	0.048009858
149	0xbe26246a	-0.16224828

conv1.bias f4 [6]
0	0xbdd0b1ce	-0.101901636
1	0x3e43a51a	0.1910595
2	0xbccd7156	-0.025078457
3	0xbc9c433d	-0.01907503
4	0x3d4de816	0.050270163
5	0xbe0fb359	-0.1403326

conv2.weight f4 [16, 6, 5, 5]
0	0x3d4ab9f5	0.04949375
1	0x3d326f03	0.0435629
2	0x3d4bd849	0.049766812
3	0x3ca23b27	0.019803597
4	0xbd6eb800	-0.058280945
5	0xbd5be52f	-0.053685363
6	0x3c693fd9	0.014236414
7	0x3ce0a938	0.02742444
8	0xbd0527c5	-0.03250863
9	0x3dcb5ee7	0.099302106
10	0xbd811a72	-0.06303872
11	0x3c780655	0.015138228
12	0xbd25db76	-0.040492497
13	0x3d4d3729	0.050101433
14	0x3ce5826d	0.028016293
15	0x3d118379	0.035525773
16	0xbc0483bf	-0.008088051
17	0xbda193ee	-0.078895435
18	0x3d7d9d57	0.06191763
19	0xbdcc8297	-0.099858455
20	0x3d07f150	0.033189118
21	0xbd6c2d7d	-0.05766057
22	0x3d0b133a	0.033953883
23	0x3c6d73bd	0.014492926
24	0x3becaba7	0.007222611
25	0xbd2240fa	-0.039612748
26	0x3d525878	0.0513539
27	0x3df51ac5	0.119679965
28	0x3d80ab60	0.06282687
29	0x3b0cb193	0.0021468147
30	0xbc9b137d	-0.018930191
31	0x3da52f76	0.08065693
32	0x3e1bd215	0.15216859
33	0x3e338923	0.17532782
34	0x3dedd183	0.11612227
35	0xbd22e742	-0.039771326
36	0xbd8f7cb6	-0.070062086
37	0xbd0f77be	-0.035026304
38	0x3db98d12	0.0906011
39	0xbd5a608f	-0.05331474
40	0xbcf9c0b2	-0.030487392
41	0x3d26cdd2	0.04072363
42	0xbd82dbf0	-0.06389606
43	0xbd83ad71	-0.06429566
44	0xbdcfc05f	-0.10144114
45	0x3d1d2c38	0.03837225
46	0x3cf538b4	0.029934265
47	0x3dc4fb60	0.096182585
48	0x3d06762d	0.032827545
49	0xbc7e6971	-0.015528069
50	0x3d541de0	0.051786304
51	0xbd8a70c3	-0.06759789
52	0xbd939d2d	-0.07207713
53	0x3d78a045	0.06069972
54	0x3d9d6db5	0.076869406
55	0xbd46b17b	-0.048509102
56	0xbd6940ac	-0.05694644
57	0x3cc1fc0e	0.02367976
58	0x3c8fce45	0.017554412
59	0x3d3e0abf	0.046396967
60	0x3d136f71	0.03599495
61	0x3cd44971	0.025913926
62	0xbced0f67	-0.028938008
63	0x3a517ad2	0.0007991019
64	0x3d522b74	0.05131097
65	0xbc2f99ae	-0.010717792
66	0xbd968086	-0.07348733
67	0xbba6d693	-0.005091497
68	0xbcb522c6	-0.022111308
69	0xbd4078c9	-0.04699019
70	0x3d1e2f8b	0.03861956
71	0x3ce24117	0.027618928
72	0x3d8bac02	0.06819917
73	0x3d95c331	0.073126204
74	0xbc06d4b5	-0.008229424
75	0xbd9ef2d4	-0.077611595
76	0x3c0ae88f	0.008478298
77	0x3d63d07d	0.05561875
78	0x3d75ab53	0.05997784
79	0x3d345624	0.044027463
80	0x3cf4e443	0.029894
81	0x3c12e693	0.008966106
82	0x3cb07953	0.021542227
83	0x3d367e9c	0.044554338
84	0xbdb934a4	-0.090432435
85	0x3cf08040	0.02935803
86	0x3caa655d	0.020800287
87	0x3cf53857	0.029934091
88	0xbcbee886	-0.023304235
89	0x3c038f11	0.008029715
90	0x3c2f8027	0.010711706
91	0xbda440b1	-0.080201514
92	0xbd19ee1e	-0.037580602
93	0x3d113cdc	0.03545843
94	0xbd8be69b	-0.06831094
95	0xbd05a715	-0.032630045
96	0x3d5b8157	0.053590145
97	0x3d721890	0.059105456
98	0xbd4ff8dc	-0.05077444
99	0x3cf7fcb3	0.030271864
100	0xbda780ba	-0.081788495
101	0x3c951f8a	0.018203516
102	0xbd4ba9fb	-0.049722653
103	0x3c869b6d	0.016431535
104	0x3d0b3d04	0.033993736
105	0xbdc58577	-0.09644597
106	0x3d2e8c95	0.04261454
107	0xbcb0b15d	-0.021568948
108	0xbb7acc7e	-0.003826886
109	0x3d904499	0.07044334
110	0xbd0875a0	-0.0333153
111	0x3d02ea93	0.03196199
112	0xbcf4d141	-0.029884936
113	0x3d1dc6bc	0.038519606
114	0x3de3b977	0.11119359
115	0xbbe4dff7	-0.0069847065
116	0xbe00a2d2	-0.12562111
117	0xbbd13afa	-0.0063852044
118	0x3cea3b02	0.02859259
119	0xbd420379	-0.047366593
120	0x3cc686d1	0.024234207
121	0xbc6b47c4	-0.014360372
122	0xbcaf9093	-0.021431243
123	0x3d81d717	0.06339853
124	0x3d34e297	0.044161405
125	0x3d637f80	0.055541515
126	0x3c3c1a89	0.011480936
127	0xbd1e10cd	-0.03859024
128	0x3d9876f9	0.07444567
129	0x3d624774	0.055243924
130	0xbb648265	-0.003486776
131	0xbd8f6225	-0.070011415
132	0x3cef3e0e	0.029204395
133	0x3dd5dc6a	0.10442431
134	0xbacb89de	-0.0015528759
135	0xbd85d5eb	-0.06534942
136	0xbdd14c4b	-0.1021963
137	0xbbb85798	-0.0056256764
138	0x3d172d32	0.036908336
139	0xbc0120d1	-0.007881359
140	0x3c6d812c	0.014496129
141	0x3cc68d04	0.024237163
142	0x3d1f56de	0.038901202
143	0x3d9a55ed	0.0753592
144	0x3c903645	0.017604003
145	0xbd83b995	-0.06431881
146	0x3c4a88be	0.012361703
147	0xbca7abae	-0.020467605
148	0x3d80bc25	0.06285886
149	0x3d2e622b	0.04257409
150	0x3d37cab0	0.044871032
151	0x3d888d59	0.06667585
152	0xbd410d5c	-0.04713188
153	0xbc679eaa	-0.01413695
154	0x3d8c2648	0.06843239
155	0xbcbdf283	-0.023186928
156	0x3d52a9d6	0.0514315
157	0x3db0b266	0.08627777
158	0x3dbad36c	0.09122357
159	0xbd246526	-0.040135525
160	0x3d3dff64	0.046386138
161	0x3b2de167	0.0026532055
162	0x3d22afb6	0.039718352
163	0x3dc48a16	0.0959665
164	0x3d721945	0.05910613
165	0xbd9d09ce	-0.07667886
166	0x3cde067b	0.0271027
167	0xbd896220	-0.06708169
168	0x3d51f59e	0.05125963
169	0xbda2c2fc	-0.079473466
170	0x3d776056	0.060394607
171	0xbd8e3430	-0.06943548
172	0x3c6fa734	0.014627267
173	0x3c157f60	0.009124607
174	0xbae00a76	-0.0017092961
175	0x3e1d01e5	0.15332754
176	0x3db45f43	0.08807232
177	0xbccbcc59	-0.024877714
178	0xbd1e60d5	-0.038666565
179	0x3dd65f2a	0.1046737
180	0x3d7e2746	0.062049173
181	0x3c1849eb	0.009294967
182	0x3c7d4559	0.015458428
183	0x3d8df76c	0.069319576
184	0x3ce5d663	0.02805633
185	0xbc55de58	-0.013053499
186	0xbd70f9fc	-0.058832154
187	0x3d1ce82e	0.03830736
188	0xbb053a20	-0.0020328835
189	0x3d97129b	0.073765956
190	0x3c8c0bd0	0.017095476
191	0xbbd44d98	-0.0064789765
192	0xbc12537f	-0.00893104
193	0xbdfb2f21	-0.122648485
194	0xbd5103d0	-0.051029027
195	0xbdb14ed8	-0.086576164
196	0xbde8e1ea	-0.11371215
197	0xbca96817	-0.020679517
198	0xbe0527de	-0.1300349
199	0xbd541f2f	-0.05178755
200	0x3c1181c0	0.0088810325
201	0xba9e6100	-0.0012083352
202	0xbcadac67	-0.021200372
203	0xbcbef4d4	-0.023310103
204	0x3d977617	0.07395571
205	0x3db94f2a	0.090483025
206	0xbced8aee	-0.02899691
207	0xbd84bda1	-0.06481481
208	0x3d570752	0.052497216
209	0xbd282537	-0.041051116
210	0x3d27934f	0.04091197
211	0x3caa67ea	0.020801503
212	0xbccd3c8f	-0.02505329
213	0x3d000788	0.031257182
214	0xbd4c0cf1	-0.04981703
215	0x3c1b96db	0.009496416
216	0x3d82cfa6	0.06387262
217	0x3d6fd636	0.058553897
218	0x3ced5e71	0.028975697
219	0xbd3df1cc	-0.046373174
220	0x3d4b6cfc	0.049664482
221	0x3d83058e	0.06397544
222	0x3c61461e	0.013749627
223	0xbd90b629	-0.07065994
224	0xbd6ca708	-0.05777648
225	0xbd4fafd8	-0.050704807
226	0xbd098b0f	-0.033579882
227	0xba574f16	-0.0008213384
228	0x3d1118c0	0.035423994
229	0x3d348a59	0.04407725
230	0x3d1d29b4	0.03836985
231	0xbcb20143	-0.021729117
232	0x3d86beb4	0.065793425
233	0xbc80ff4c	-0.015746735
234	0xbd23f435	-0.040027816
235	0xbdafe997	-0.085894756
236	0x3d61b63c	0.055105433
237	0x3c8460b0	0.016159385
238	0x3cf4816e	0.029846873
239	0xbd296bf8	-0.041362733
240	0x3d630f4e	0.055434518
241	0xbd2dd8d7	-0.042443123
242	0x3d87aea9	0.06625111
243	0x3d120bec	0.0356559
244	0xbd53a5ce	-0.051671796
245	0xbc8815f6	-0.016612034
246	0x3d8d9db0	0.06914842
247	0x3d01559d	0.031575788
248	0x3cc4783e	0.023983117
249	0xbd0b51a8	-0.03401342
250	0x3b32411d	0.0027199455
251	0x3d921cf8	0.071344316
252	0xbb01a01b	-0.0019779268
253	0x3cc6d704	0.02427245
254	0x3d2c8d6c	0.042127058
255	0x3db19aa9	0.08672077

conv2.bias f4 [16]
0	0x3d8fcfd8	0.07022065
1	0x3db2d396	0.08731763
2	0x3c9d10b8	0.019173011
3	0xbd861a8f	-0.065480344
4	0xbd6544ba	-0.055973746
5	0x3cc0715f	0.02349156
6	0x3d582488	0.052769214
7	0xbd71f07e	-0.05906724
8	0xbc617302	-0.01376033
9	0xbd84b1b4	-0.06479207
10	0xbd40d495	-0.047077734
11	0xbb8a9cf9	-0.0042301384
12	0x3da49162	0.08035542
13	0x3cc6f99b	0.024288943
14	0xbcfb52c0	-0.030679107
15	0xbd9ef515	-0.077615894

fc1.weight f4 [120, 256]
0	0x3d46588c	0.04842429
1	0x3cef675c	0.02922409
2	0x3d8284af	0.06372964
3	0x3cc36bf1	0.023855181
4	0xbd5231e3	-0.051317107
5	0x3c304cd1	0.010760502
6	0xbd6925b1	-0.05692071
7	0xbd828f2b	-0.063749634
8	0x3d6082df	0.05481231
9	0xbcb217d1	-0.021739872
10	0x3d7962b6	0.060885154
11	0xbcf66ce5	-0.030081222
12	0xbd7b22fd	-0.061312664
13	0x3882b674	6.2328676e-05
14	0x3d401c82	0.046902187
15	0x3d74bc4e	0.059749894
16	0x3b136de4	0.002249592
17	0x3ce3cebb	0.027808538
18	0x3d131b2c	0.035914585
19	0x3cc2a8b0	0.023762077
20	0x3cc3147b	0.023813477
21	0xbba2fb2c	-0.0049737897
22	0xbc1d6a21	-0.009607823
23	0x3d0c6d6d	0.034284044
24	0xbd5d5a78	-0.054041356
25	0x3ba56413	0.00504733
26	0xbd071029	-0.032974396
27	0x3cd9c2e7	0.026582194
28	0x3cced736	0.025249105
29	0xbd3426e3	-0.043982398
30	0xbc00d9ad	-0.007864398
31	0x3cce9eb7	0.025222166
32	0xbd50438b	-0.050845664
33	0x3d6dd493	0.058064055
34	0x3bff7882	0.007796348
35	0x3d4dba24	0.050226346
36	0xbc3238f8	-0.01087784
37	0x3ce9c25c	0.02853506
38	0xbd67568c	-0.056479022
39	0x3d320c5b	0.043468814
40	0x3d7a337f	0.061084267
41	0x3c0d1b40	0.008612454
42	0xbc5c5e54	-0.013450224
43	0x3d2fd48b	0.042927306
44	0xbca1bcde	-0.01974338
45	0x3d554799	0.052070234
46	0xbd734faf	-0.059402164
47	0x3c645bc3	0.013937893
48	0xbd801a43	-0.06255009
49	0xbd28d43c	-0.041218027
50	0xbd7ae622	-0.061254628
51	0x3c6cdd65	0.014457081
52	0x3cac731b	0.02105098
53	0xbd859251	-0.06522048
54	0x3c25b479	0.010113829
55	0x3d9158b3	0.07096996
56	0xbd0af418	-0.033924192
57	0x3c9c21ad	0.019059027
58	0xbd142851	-0.03617126
59	0x3d16791f	0.036736604
60	0xbd867ca7	-0.06566744
61	0x3d8c51d7	0.06851547
62	0x3d91140d	0.070839025
63	0xbcddddab	-0.027083239
64	0x3ceeb730	0.029140085
65	0x3d1844f7	0.037175145
66	0x3d9346af	0.07191216
67	0x3b94f424	0.0045457054
68	0xbd88de00	-0.06682968
69	0xbc9f1488	-0.01941897
70	0x3b20fe68	0.00245657
71	0x3d480a18	0.04883775
72	0x3d0b6153	0.034028362
73	0xbd8d9fe7	-0.069152646
74	0xbc18da6b	-0.009329419
75	0x3d8f1dd3	0.069881104
76	0xbd5065f7	-0.05087849
77	0xbd47a1a6	-0.048738144
78	0x3d146e65	0.036238093
79	0x3d05ef8a	0.032699145
80	0xbd7eba07	-0.06218913
81	0x3cd61ebf	0.026137708
82	0xbd8eb6d9	-0.06968469
83	0x3d04fbf3	0.03246684
84	0x3d36bb50	0.04461223
85	0x3d0887d7	0.033332672
86	0x3d1d38c4	0.038384214
87	0x3d036507	0.03207877
88	0xbd023ec3	-0.031798135
89	0x3c9794ef	0.018503634
90	0xba682821	-0.00088560773
91	0xbbaf1994	-0.0053436253
92	0x3d61bb65	0.055110354
93	0xbd41f238	-0.04735014
94	0xbd5fe1b6	-0.054658614
95	0xbd0376d1	-0.032095734
96	0x3d8aa62b	0.06769975
97	0xbd4e078a	-0.05030016
98	0xbbfc3be5	-0.0076975697
99	0x3d6d59bc	0.057946905
100	0x3d1d0c29	0.038341675
101	0xbd073499	-0.033009145
102	0xbc88f59c	-0.016718678
103	0x3d0ea11f	0.034821626
104	0xbd767d8b	-0.06017832
105	0x3d02590c	0.031823203
106	0x3d03b4ad	0.032154728
107	0x3d91c822	0.071182504
108	0xbd2cba58	-0.0421699
109	0x3b9ba68f	0.00475008
110	0xbc55b4f2	-0.013043629
111	0x3c5e4f02	0.013568642
112	0x38d3b036	0.00010094086
113	0x3d98eecc	0.07467422
114	0xbced1408	-0.028940216
115	0xbcd170ae	-0.025566425
116	0xbd5ebd8b	-0.05437998
117	0x3c40f6b5	0.01177757
118	0xbd29740f	-0.041370448
119	0x3d166ef5	0.03672691
120	0xbc48e93f	-0.012262641
121	0x3d1f28f5	0.03885742
122	0xbd925999	-0.07145996
123	0xbd280ece	-0.041029744
124	0x3cbc6965	0.022999475
125	0x3c760335	0.015015413
126	0xbd2bfceb	-0.04198925
127	0x3d804468	0.062630475
128	0xbc8f44c3	-0.017488843
129	0xbd3923a3	-0.0452
130	0xbd7d7618	-0.0618802
131	0xbd380e0c	-0.04493527
132	0xbcf52712	-0.029925857
133	0x3d7f0a6a	0.06226579
134	0x3d816360	0.063177824
135	0x3cc1ae2e	0.023642626
136	0x3cab1bd8	0.0208873
137	0x3c584141	0.0131991515
138	0xbd22da69	-0.039759073
139	0x3d95b91b	0.07310697
140	0xbbb02f9a	-0.0053767683
141	0xbc336a75	-0.010950674
142	0x3ccb7104	0.024834163
143	0x3d84e11d	0.064882495
144	0xbd3cec3f	-0.04612374
145	0xbc36365e	-0.011121361
146	0xbc871664	-0.016490169
147	0x3d3e526b	0.04646532
148	0xbca96c71	-0.020681592
149	0xbd3810f9	-0.04493806
150	0x3b09a714	0.0021004127
151	0xbc9f0f3f	-0.01941645
152	0xbc51877a	-0.012788648
153	0x3d487f8a	0.048949756
154	0xbda64478	-0.08118528
155	0xbd692571	-0.056920473
156	0x3c2cd04d	0.01054771
157	0x3bd41d18	0.006473195
158	0xbd3f67e3	-0.046729933
159	0xbd189d23	-0.037259232
160	0xbd01fdbc	-0.03173612
161	0xbd17f4f1	-0.03709883
162	0x3c7e34fd	0.015515563
163	0x3b82cf1f	0.003991976
164	0xbc55f445	-0.013058727
165	0xbd2d733b	-0.04234622
166	0x3d91a754	0.071119934
167	0xbca12d9a	-0.019675065
168	0xbc7d443c	-0.015458163
169	0xbcac2b08	-0.021016613
170	0x3cc2a96e	0.023762431
171	0xbc95b573	-0.018274998
172	0xbbaf7932	-0.005355024
173	0xbd36a298	-0.044588655
174	0xbd8a0681	-0.06739522
175	0x3c7ab308	0.015301473
176	0x3d4d3414	0.050098494
177	0xbc6a53f1	-0.01430224
178	0x3d6bf7fd	0.057609547
179	0xbd17f82c	-0.03710191
180	0xbd18d960	-0.03731668
181	0x3cfacce1	0.030615272
182	0x3dac5221	0.08414102
183	0xbca1f639	-0.019770728
184	0x3be8be64	0.0071027745
185	0x3d3616ee	0.04445546
186	0x3d63a964	0.055581465
187	0xbc50358b	-0.012708078
188	0xbb1b0c7c	-0.0023658564
189	0x3bdd9f00	0.006763339
190	0x3db07de0	0.08617759
191	0xbca84248	-0.020539418
192	0xbc040706	-0.008058315
193	0xbce0c5b7	-0.027438028
194	0x3bbe381b	0.005805028
195	0x3c28fe56	0.010314545
196	0xbd1dc520	-0.03851807
197	0x3d0c92c0	0.03431964
198	0x3d40a9d8	0.047036976
199	0xba95eca8	-0.0011438327
200	0x3d2f66e0	0.04282272
201	0x3c9c14fd	0.019052977
202	0x3cda17db	0.026622703
203	0xbd944aec	-0.07240853
204	0xbc96478d	-0.018344665
205	0xbda072f8	-0.078344285
206	0xbce204cb	-0.027590176
207	0x3c3249e4	0.010881875
208	0x3d48866c	0.04895632
209	0x3d7f56a8	0.0623385
210	0xbc082e70	-0.008311853
211	0xbc2c5cb5	-0.01052015
212	0xbd07b1a3	-0.033128392
213	0xbba97132	-0.0051709646
214	0x3d3ecc67	0.046581652
215	0xbd074c86	-0.033031963
216	0x3d8a39fd	0.06749342
217	0x3d8f1db4	0.06988087
218	0xbd2d9956	-0.04238256
219	0xbcf353d1	-0.029703053
220	0xbd3b9561	-0.045796756
221	0x3d57f34f	0.05272227
222	0x3d17dc5f	0.037075397
223	0xbd86e7a1	-0.065871485
224	0x3d2ae9f2	0.041727014
225	0xbd023f7b	-0.03179882
226	0x3d9491c5	0.07254366
227	0x3bdc3cb0	0.0067211017
228	0xbc82da63	-0.015973276
229	0x3d34d556	0.044148766
230	0x3d0dd2f3	0.034625005
231	0x3d7232b2	0.059130378
232	0x3cecf54b	0.028925559
233	0x3c5cdc70	0.013480291
234	0x3d8dbe6d	0.069210865
235	0xbd2cd5a1	-0.04219592
236	0x3b1d90c6	0.002404259
237	0x3d6a1a2e	0.057153873
238	0x3d88e366	0.06683998
239	0x3d3ee012	0.04660041
240	0xbd0fe9a3	-0.035134923
241	0x3cecef9e	0.028922852
242	0xbd483906	-0.048882507
243	0x3cf98eb9	0.030463563
244	0xbd922be5	-0.071372785
245	0xbd016abc	-0.03159593
246	0x3da136b3	0.07871761
247	0x3c293eda	0.010329926
248	0x3d989a5f	0.07451319
249	0x3d906f19	0.0705244
250	0x3b8b6463	0.0042539104
251	0x3aa0b784	0.0012261723
252	0x3c3d2984	0.011545543
253	0xba5a283b	-0.0008322035
254	0x3b947b83	0.0045313253
255	0x3d43c436	0.047794543

fc1.bias f4 [120]
0	0x3c08b7a8	0.008344568
1	0x3d7be2e5	0.06149568
2	0xbd7ea887	-0.06217244
3	0xbd40f12e	-0.047105007
4	0x3d187ed9	0.037230346
5	0xbc7c6963	-0.0154059855
6	0xbc9b883e	-0.018985864
7	0x3d6d0dce	0.057874493
8	0xbb0ed519	-0.0021794497
9	0xbc2c8aad	-0.01053111
10	0x3b1a2948	0.002352314
11	0xbca4c766	-0.020114612
12	0xbcb9ae58	-0.022666141
13	0x3b89429c	0.0041888487
14	0xbcbae725	-0.022815296
15	0x3c48754f	0.012235
16	0xbc097d4e	-0.008391691
17	0xbcc6dfc1	-0.024276616
18	0x3d5339bf	0.051568743
19	0xbce283a0	-0.027650654
20	0x3ba555af	0.0050456147
21	0xbc6609bd	-0.014040408
22	0x3b880a1d	0.004151596
23	0x3d224168	0.039613158
24	0x3d6d6d06	0.0579653
25	0xbd039d5a	-0.032132484
26	0xbbad3c80	-0.005286753
27	0x3c5fe66f	0.0136657795
28	0xbd569bd8	-0.052394718
29	0xbca0267e	-0.019549605
30	0x3b561494	0.0032666074
31	0xbd7258ec	-0.059166834
32	0xbd3076c9	-0.043082032
33	0xbd2c90b8	-0.042130202
34	0x3c893ba7	0.016752077
35	0x3c99a230	0.018754095
36	0x3b657539	0.0035012497
37	0xbd1a9c86	-0.03774693
38	0xbd1c5277	-0.038164582
39	0x3cd5dcef	0.026106326
40	0xbce49775	-0.027904252
41	0xbb638965	-0.0034719345
42	0x3d27eb15	0.040995676
43	0x3d22925e	0.039690368
44	0xbb98c3bb	-0.0046620048
45	0xbd3a777f	-0.045524117
46	0xbd2dfdf0	-0.0424785
47	0x3d0c805e	0.034302108
48	0xbb546edb	-0.0032414708
49	0xbceecdd8	-0.029150888
50	0x3cede31d	0.02903896
51	0x3d46836c	0.048465177
52	0xbd2cb250	-0.04216224
53	0x3cfe53e4	0.031045862
54	0x3d658562	0.056035407
55	0xbd04c767	-0.032416727
56	0xbc81aeb7	-0.01583038
57	0x3d0d3272	0.034471937
58	0xbd4d33e3	-0.05009831
59	0x3d151929	0.036400948
60	0x3d680bdd	0.05665194
61	0xbb00754f	-0.0019601171
62	0xbd785e2c	-0.060636684
63	0xbc04d8f7	-0.008108369
64	0x3d4a1dbc	0.049344763
65	0xbcb3d9e2	-0.02195448
66	0xbd3ad746	-0.045615457
67	0xbbbcfb31	-0.005767249
68	0xbd698725	-0.05701365
69	0xbd065d41	-0.032803778
70	0x3d46cc77	0.048534837
71	0xbcfb9982	-0.030712847
72	0x3d6cc578	0.05780551
73	0xbb558438	-0.003258003
74	0xbd65a33e	-0.056063883
75	0xbd6bf430	-0.057605922
76	0xbd1dfb18	-0.03856954
77	0xbc88e2ec	-0.016709767
78	0x3c6ce7f3	0.014459598
79	0xbc94b5c0	-0.018153071
80	0x3d2776ad	0.040884662
81	0xbd05a444	-0.03262736
82	0xbd77cc97	-0.060497846
83	0xbd0581b6	-0.032594405
84	0xbd86efd2	-0.06588711
85	0xbcbdb09e	-0.023155507
86	0x3c959026	0.018257212
87	0x3bbe857c	0.0058142524
88	0xbd1fa54c	-0.038976
89	0x3bdc2496	0.0067182286
90	0xbd019eea	-0.031645693
91	0x3c7a2774	0.015268195
92	0x3d77039e	0.060306184
93	0xbd1d1b40	-0.038356066
94	0x3c9fc65b	0.019503763
95	0xbd2afeab	-0.041746777
96	0xbb4a2e24	-0.0030850256
97	0xbd17b03d	-0.03703331
98	0xbd4664e6	-0.048436068
99	0xbcb498c3	-0.022045499
100	0x3cef2083	0.029190307
101	0xbcfda0cf	-0.030960469
102	0xbca3c5ef	-0.019991843
103	0xbd2c9c0c	-0.042141005
104	0x3d4ebaa4	0.050470963
105	0xbd1df5da	-0.03856454
106	0x3c878049	0.016540663
107	0x3d4326fd	0.047644604
108	0x3d84a5dd	0.064769484
109	0xbc10d0a1	-0.0088388035
110	0x3ced7f6e	0.028991427
111	0x3c71e70c	0.0147645585
112	0x3d48ef71	0.049056474
113	0xbd47d200	-0.048784256
114	0xbc87f27b	-0.016595116
115	0x3d282e15	0.041059572
116	0xbd721cd7	-0.059109535
117	0x3d621bd5	0.055202324
118	0x3d487a4a	0.04894475
119	0x3cd9be0c	0.02657988

fc2.weight f4 [84, 120]
0	0xbca386be	-0.019961711
1	0x3cdb98ab	0.026806196
2	0xbd90d714	-0.07072273
3	0x3d812c79	0.063073106
4	0x3d0731c6	0.033006452
5	0x3d2f5413	0.04280479
6	0x3d64919c	0.055802926
7	0xbd423a8d	-0.04741912
8	0x3d9b5977	0.075854234
9	0x3cbf3cfe	0.023344513
10	0x3d65d8ae	0.056114845
11	0xbc93ef8f	-0.018058566
12	0x3d284aea	0.04108707
13	0xbdae8ff3	-0.0852355
14	0x3c8474da	0.016169
15	0x3d795cf7	0.060879674
16	0xbd5837ed	-0.05278771
17	0xbdb25c20	-0.08708978
18	0x3d9dce27	0.07705336
19	0x3daf4051	0.08557189
20	0x3d11a1b7	0.035554614
21	0x3ccc4209	0.024933832
22	0x3d83ad50	0.06429541
23	0x3d527b99	0.051387403
24	0xbda7ac4e	-0.081871614
25	0xbcc4de50	-0.024031788
26	0xbc249450	-0.010045126
27	0xbdc545ce	-0.09632455
28	0x3db2279f	0.086989634
29	0xbba220cb	-0.004947757
30	0xbd905f11	-0.070493825
31	0xbdb22414	-0.086982876
32	0xbb075935	-0.0020652537
33	0xbd3ed676	-0.046591245
34	0xbce35e61	-0.027754964
35	0x3c27eaf4	0.010248888
36	0x3c397a7a	0.011320705
37	0x3d15b6c3	0.03655125
38	0xbd35853b	-0.04431651
39	0xbd0cef16	-0.034407698
40	0xbda25e35	-0.07928125
41	0x3d077033	0.033065986
42	0xbdaeb2e0	-0.085302114
43	0x3d2cef0d	0.042220164
44	0x3c9160dc	0.017746381
45	0xbd8f95d0	-0.07010996
46	0xbd9474ae	-0.072488174
47	0x3cae968f	0.021312026
48	0xbd2d2da6	-0.042279862
49	0x3d9d5731	0.07682646
50	0x3d7fd4ab	0.062458675
51	0xbdbb6ae3	-0.091512464
52	0x3dacd276	0.0843858
53	0xbcb9d3f6	-0.022684079
54	0xbc6f2ca2	-0.014598044
55	0x3d8dc5fe	0.0692253
56	0x3ccde033	0.02513132
57	0xbcb4efa5	-0.022086928
58	0x3a5a27cc	0.000832197
59	0xbd59fa7a	-0.05321739
60	0x3c930e05	0.017951021
61	0xbdcd1151	-0.100130685
62	0x3daf3a80	0.0855608
63	0xbc71e1ea	-0.014763335
64	0xbdbf3fd0	-0.09338343
65	0x3d7c65ed	0.06162064
66	0xbd82e8cc	-0.06392059
67	0x3cd9f776	0.026607256
68	0xbd93c67b	-0.072155915
69	0xbd4c15a1	-0.049825314
70	0x3db6e9d6	0.089313194
71	0xbdcc571b	-0.099775515
72	0xbd93b211	-0.07211698
73	0xbd0d75e6	-0.034536265
74	0xbd7cab65	-0.061686892
75	0x3d1bf8ae	0.038078956
76	0xbd80020e	-0.06250392
77	0x3d10cc3f	0.035351034
78	0x3d155a63	0.036463153
79	0x3c6cc70b	0.014451752
80	0x3d8cfed1	0.0688454
81	0x3d28bcb1	0.041195575
82	0xbd27537a	-0.040851094
83	0xbd027f92	-0.03185994
84	0x3cc9c900	0.024631977
85	0xbbc3ac43	-0.005971463
86	0x3ccc77f6	0.024959546
87	0x3d83f97d	0.064440705
88	0xbd881b18	-0.06645793
89	0x3d94e647	0.072704844
90	0x3b15d1b9	0.00228606
91	0x3d8604fa	0.06543918
92	0xbd44356c	-0.04790251
93	0xbd51a1d9	-0.05117974
94	0xbd1abe48	-0.037779123
95	0x3d6a3956	0.057183586
96	0x3db2e56c	0.08735165
97	0x3d4b32a7	0.049608853
98	0xbac2f400	-0.0014873743
99	0x3d3aa21b	0.045564752
100	0x3c5dc1dd	0.01353499
101	0x3c72b705	0.014814143
102	0x3d2cc413	0.04217918
103	0x3d9c58bd	0.07634113
104	0xbd00914f	-0.031388577
105	0x3d951217	0.07278841
106	0x3c4b2774	0.012399543
107	0x3cddab29	0.027059155
108	0xbdba39c9	-0.09093053
109	0x3d2cdffd	0.0422058
110	0xbcd2207a	-0.025650252
111	0x3d8a4d5c	0.067530364
112	0x3d7aa9b0	0.061196983
113	0xbd2f1e51	-0.04275352
114	0x3d6a2532	0.05716438
115	0xbc80e4d5	-0.015734116
116	0x3dafd4ac	0.08585486
117	0xbb7e8de1	-0.003884189
118	0x3d37104d	0.04469328
119	0x3cc39b39	0.023877727
120	0x3dadc273	0.08484354
121	0xbdba9c3c	-0.091118306
122	0xbdb22ad5	-0.08699576
123	0xbd8efca8	-0.06981784
124	0xbdd1e56b	-0.10248836
125	0xbaa11ba5	-0.0012291564
126	0x3dbc8a35	0.092060484
127	0x3c5da32f	0.0135276755
128	0xbd247072	-0.0401463
129	0x3db577f1	0.08860768
130	0x3cedafb5	0.029014448
131	0x3d8c87d5	0.068618454
132	0x3b13a7de	0.0022530477
133	0xbdc2cec4	-0.09512094
134	0xbd554134	-0.052064136
135	0x3d7b9af5	0.061427075
136	0x3c8d9d83	0.017287022
137	0xbdbaf6ad	-0.09129081
138	0xbd87d519	-0.06632442
139	0xbd017735	-0.031607825
140	0xbdacf11d	-0.08444426
141	0xbdbe0931	-0.09279097
142	0xbd328147	-0.04358032
143	0x3d219435	0.039447982
144	0x3d833bd1	0.064078934
145	0xbd5f59d0	-0.05452901
146	0xbd19bb2a	-0.03753201
147	0xbd1f7b6a	-0.038936056
148	0x3d22b58a	0.03972391
149	0x3db9e076	0.09076016
150	0x3d515ee7	0.051115897
151	0x3cb96075	0.022629002
152	0x3d89772a	0.06712182
153	0x3d8a4047	0.06750541
154	0xbb946c17	-0.004529487
155	0x3d555835	0.052086074
156	0x3d5a92ff	0.053362843
157	0xbda77266	-0.08176117
158	0xbda41e11	-0.08013547
159	0x3dc581dd	0.0964391
160	0xbc0b9615	-0.008519669
161	0x3da03b68	0.07823831
162	0x3cfd6699	0.030932711
163	0xbd9de531	-0.077097304
164	0xbcf72b7e	-0.030172106
165	0xbcdd5289	-0.027016895
166	0x3dab9a0c	0.083789915
167	0x3d4e7030	0.05039996
168	0x3de6677b	0.11250206
169	0x3d37aa5d	0.044840205
170	0xbcbf30e4	-0.023338743
171	0xbd5a97cc	-0.05336742
172	0xbd95941f	-0.073036425
173	0x3be1420e	0.0068743294
174	0xbd4c9325	-0.049945015
175	0xbd9401ad	-0.07226882
176	0x3d8b5f47	0.06805282
177	0x3dc1560a	0.09440239
178	0x3d9b164f	0.075726144
179	0x3bd6ef8d	0.0065593184
180	0x3ba25a0e	0.004954583
181	0x3db19304	0.08670619
182	0xbdd19189	-0.10232837
183	0xbd6cb47f	-0.057789322
184	0xbbb51c0a	-0.005527024
185	0x3c9f83d5	0.019472042
186	0xbd21d81c	-0.03951274
187	0x3db31958	0.08745068
188	0x3d47dc1c	0.048793897
189	0x3da0ae15	0.078457035
190	0xbd4c7315	-0.04991444
191	0xbcdc6058	-0.026901409
192	0x3cb0a1af	0.021561472
193	0xb9c5e041	-0.0003774185
194	0x3daaa976	0.08333103
195	0x3d8ed52e	0.069742545
196	0xbd33b2ae	-0.043871574
197	0xbc3cffad	-0.011535567
198	0x3d0d66dc	0.034521922
199	0x3dbbd578	0.09171575
200	0xbd501dfd	-0.05080985
201	0xbd64bfa7	-0.055846836
202	0x3d12cdb4	0.035840705
203	0xbc0b92f4	-0.008518923
204	0x3d92e7a4	0.07173088
205	0x3dd6c521	0.10486818
206	0x3d6d3a9d	0.057917226
207	0x3d88e88b	0.06684979
208	0x3d65e3fd	0.05612563
209	0xbc7adec0	-0.015311897
210	0x3d255f36	0.040374003
211	0x3d3fc0fd	0.046814907
212	0xbcfe7d7b	-0.031065693
213	0x3da4fa28	0.08055526
214	0xbd148a24	-0.036264554
215	0x3da92cce	0.08260499
216	0x3dcc9355	0.09989039
217	0xbbf182bf	-0.0073703225
218	0xbbac583e	-0.0052595427
219	0x3d50e5be	0.05100035
220	0xbcdeb13d	-0.027184123
221	0x3d153559	0.03642783
222	0xbca16736	-0.019702535
223	0xbc57a337	-0.013161472
224	0x3d32b9cd	0.043634225
225	0x3d2da083	0.042389404
226	0x3d1c1576	0.038106404
227	0x3d87344f	0.06601774
228	0xbd221f1e	-0.039580457
229	0xbcc73db1	-0.024321409
230	0xbd20e1cb	-0.039277833
231	0x3dac57a6	0.08415155
232	0xbd9c0b92	-0.07619394
233	0xbcd365f9	-0.02580546
234	0x3c7c21bb	0.015388901
235	0xbd7f7a80	-0.062372684
236	0x3c70beef	0.01469396
237	0x3d533be0	0.051570773
238	0xbda915db	-0.08256122
239	0x3d171c67	0.03689232
240	0xbdc050bf	-0.09390401
241	0xbccd13bc	-0.025033824
242	0x3d93b0ee	0.07211481
243	0xbdcc2a89	-0.099690504
244	0xbd0ddac6	-0.034632467
245	0x3d6d7a32	0.057977863
246	0x3de0b60b	0.10972222
247	0x3ae86f04	0.001773328
248	0x3d6a4195	0.05719145
249	0x3df4b81e	0.1194918
250	0xbd54079b	-0.051765066
251	0x3d0a978e	0.03383594
252	0x3c66556f	0.014058455
253	0xbd741e80	-0.0595994
254	0x3b5c00e3	0.0033569864
255	0x3cc4301b	0.02394872

fc2.bias f4 [84]
0	0x3cc5fdee	0.024168935
1	0x3d8f0e92	0.06985201
2	0xbc76db88	-0.015066989
3	0xbdb9f42b	-0.090797745
4	0x3d8d235e	0.068915114
5	0x3bd57653	0.0065143495
6	0xbc75ae2b	-0.014995138
7	0xbdb78427	-0.08960753
8	0x3c93745b	0.017999819
9	0x3cdb9ec2	0.0268091
10	0xbd961c9d	-0.07329676
11	0xbd533533	-0.051564407
12	0x3d6399cc	0.055566594
13	0x3b9fc920	0.004876271
14	0xbc46dbba	-0.012137348
15	0xbdcb601e	-0.09930442
16	0xbd8e9576	-0.06962101
17	0xba0caf2e	-0.000536668
18	0xbd81d9b8	-0.06340355
19	0xbd3f0663	-0.04663695
20	0xbbc84e65	-0.006112861
21	0x3c6abb21	0.014326842
22	0x3d44f601	0.04808617
23	0x3db3a84c	0.087723345
24	0x3d87bf0d	0.06628237
25	0x3d969a48	0.073536456
26	0xbcfe63f1	-0.031053515
27	0x3db68b48	0.089132845
28	0x3d24f8e0	0.04027641
29	0x3d7acea0	0.06123221
30	0x3b37684c	0.002798575
31	0xbd9f7797	-0.07786482
32	0xbd3caa37	-0.046060767
33	0xbd9a9754	-0.07548395
34	0xbd5b7fdb	-0.05358873
35	0x3d01c0df	0.031678077
36	0x3d87a970	0.066241145
37	0x3dac4de4	0.08413294
38	0x3c132cab	0.008982818
39	0xbd83407f	-0.06408786
40	0xbd8f0987	-0.06984239
41	0x3d99d935	0.07512132
42	0xbb5b8ced	-0.0033500746
43	0x3d96db82	0.073660865
44	0x3da83851	0.082138665
45	0xbd9e929a	-0.07742806
46	0xbd3bb0ec	-0.045823023
47	0xbc4a0861	-0.012331099
48	0xbcfa1131	-0.030525776
49	0x3c5c653c	0.0134518705
50	0xbd6a13fb	-0.05714796
51	0xbd25be19	-0.040464494
52	0xbd06a6dd	-0.032873977
53	0x3ba98c18	0.005174171
54	0x3d6449bd	0.055734385
55	0x3cc00045	0.023437629
56	0x3d4d2ab7	0.050089564
57	0x3c9833b4	0.018579341
58	0xbcc6337c	-0.024194472
59	0x3d923e94	0.07140842
60	0xb9a14b1e	-0.0003076428
61	0xbbba0066	-0.005676317
62	0x3d79bb22	0.06096948
63	0xbc7b5d13	-0.015342015
64	0xbd4b08f8	-0.0495691
65	0x3c1bd052	0.009510117
66	0xbcfcc36f	-0.030854909
67	0xbd04c1fc	-0.03241156
68	0xbc98c36f	-0.018647877
69	0xbbe56e75	-0.007001693
70	0x3da5e8e2	0.081010595
71	0x3d86dc8f	0.06585037
72	0xbcf41a30	-0.029797643
73	0xbd11a568	-0.035558134
74	0xbdb64248	-0.08899361
75	0xbd4f1558	-0.050557464
76	0xbc24c452	-0.010056572
77	0x3d56f740	0.05248189
78	0x3db0fad9	0.086415954
79	0x3d656094	0.056000307
80	0xbcd1d73e	-0.02561533
81	0x3d8a406c	0.06750569
82	0xbca57e23	-0.020201748
83	0xbd7932b7	-0.06083938

fc3.weight f4 [10, 84]
0	0xbda257fb	-0.07926937
1	0x3e40e95b	0.18839018
2	0x3e0cb615	0.13741334
3	0x3dbf61c7	0.093448214
4	0x3d876e89	0.0661288
5	0x3d9d0eac	0.07668814
6	0xbd4922c8	-0.049105436
7	0xbb847e4c	-0.004043376
8	0x3c9ff9d6	0.01952831
9	0x3dd2c136	0.10290758
10	0x3d7d0fba	0.061782576
11	0xbd183319	-0.037158106
12	0x3b153b57	0.0022770965
13	0x3da38ef3	0.0798625
14	0xbe02cbd5	-0.12773068
15	0x3dd83a9b	0.10558053
16	0x3e378e52	0.17925385
17	0x3d474e6b	0.04865877
18	0xbd690bfd	-0.0568962
19	0xbe015f3a	-0.12633982
20	0xbdca788e	-0.09886275
21	0xbdaf4dec	-0.08559784
22	0xbd580c4b	-0.0527461
23	0x3e0637d5	0.13107236
24	0x3d96fa44	0.07371953
25	0x3e0303e1	0.12794448
26	0x3ca78b2c	0.020452105
27	0xbe2b2f43	-0.16717248
28	0x3e4f8683	0.20266156
29	0xbdc5cd91	-0.09658349
30	0x3dad0a63	0.08449247
31	0xbcf10a8e	-0.029423978
32	0x3db66a16	0.08906953
33	0xbe08c6f2	-0.13357142
34	0xbdf7ca72	-0.1209916
35	0x3d4375dd	0.047719825
36	0xbe51fcb7	-0.2050656
37	0xbe2704d5	-0.16310437
38	0xbde9ec52	-0.11422028
39	0xbdee054e	-0.116221055
40	0xbcb6a43b	-0.022295108
41	0xbdefb1de	-0.11703847
42	0xbe68df60	-0.22741461
43	0xbe2f51d5	-0.1712106
44	0xbe93101c	-0.28723228
45	0xbe314a27	-0.17313443
46	0x3d0510eb	0.032486837
47	0xbd0fc918	-0.035103887
48	0xbdcfc801	-0.101455696
49	0xbe5d62e1	-0.2161975
50	0x3dfab3b9	0.122413106
51	0xbe0c3305	-0.13691337
52	0xbdd0508a	-0.101716116
53	0x3d105858	0.0352405
54	0x3e097a7e	0.13425633
55	0x3d086abd	0.03330492
56	0xbcba2e05	-0.022727022
57	0x3e02abd9	0.12760867
58	0x3dcceb3f	0.10005807
59	0xbd62aca1	-0.055340413
60	0x3e186791	0.14883257
61	0x3d23a848	0.039955407
62	0xbe077b47	-0.1323062
63	0x3de8cb0f	0.11366855
64	0x3d0390c2	0.032120474
65	0xbd83c1f2	-0.064334765
66	0x3c022cf9	0.007945293
67	0x3d8259e2	0.063648
68	0x3d83d4d8	0.06437081
69	0x3d5facb9	0.05460808
70	0xbddb7de1	-0.10717369
71	0x3d4ad5fe	0.049520485
72	0x3e015aa9	0.1263224
73	0x3da96335	0.08270875
74	0x3d4c1e77	0.04983374
75	0xbe208384	-0.15675169
76	0x3e2da217	0.16956364
77	0x3e292dde	0.16521403
78	0xbdf4070c	-0.119154066
79	0xbd93e929	-0.07222206
80	0x3d480248	0.0488303
81	0x3e517f60	0.20458746
82	0xbda172d4	-0.0788323
83	0xbda82c5b	-0.08211585
84	0xbbe04e47	-0.006845269
85	0x3d0c3941	0.03423429
86	0xbd33cc40	-0.04389596
87	0xbdb50f48	-0.08840805
88	0x3d9fa204	0.07794574
89	0x3cd57bcc	0.026060008
90	0xbdd33cc5	-0.10314325
91	0xbd8c6479	-0.06855101
92	0x3c242659	0.010018908
93	0x3d65a49f	0.056065198
94	0xbda2f295	-0.07956425
95	0x3db9f7f8	0.090804994
96	0x3b76427f	0.0037576256
97	0xbc91827a	-0.017762411
98	0x3c21568a	0.009847293
99	0x3d990cb9	0.0747313
100	0xbd849c74	-0.064751536
101	0xbcf967b4	-0.030444957
102	0xbb0fa220	-0.0021916702
103	0xbcaa4fb6	-0.020789962
104	0xbdd1bd85	-0.10241226
105	0x3cfefb45	0.031125674
106	0x3d0e8c5a	0.03480182
107	0x3d8f9ae9	0.07011969
108	0x3bdcbbf1	0.0067362715
109	0xbde33811	-0.11094678
110	0xbc761ab6	-0.015021017
111	0x3d3971b7	0.045274463
112	0xbc6a32e2	-0.014294358
113	0x3dc89e60	0.09795833
114	0x3d7703a0	0.06030619
115	0xbcebbf4d	-0.028777743
116	0x3d25169c	0.040304765
117	0xbd77791a	-0.060418226
118	0x3cd1984b	0.025585314
119	0xbc43ae0a	-0.01194335
120	0xbc747f4f	-0.014922931
121	0xbcd7e6ba	-0.026355136
122	0xbccd7c89	-0.025083797
123	0x3c349ad4	0.011023242
124	0x3da5ac14	0.08089462
125	0x3d3d4f3f	0.046218153
126	0xbd32e78d	-0.043677855
127	0x3d06a720	0.032874227
128	0xbd327a1f	-0.043573495
129	0x3d0b49ee	0.03400605
130	0xbcc9f4c9	-0.024652855
131	0x3d7932c2	0.060839422
132	0x3c69bc62	0.014266105
133	0xbda215c0	-0.07914305
134	0xbd939be3	-0.072074674
135	0xbd3341c5	-0.043763895
136	0xbd9c18bb	-0.076219045
137	0xbdbde06d	-0.092713214
138	0xbdae83d1	-0.08521236
139	0xbd9c4775	-0.07630817
140	0x3d6774a8	0.056507736
141	0xbd74919b	-0.059709173
142	0x3d49953b	0.049214583
143	0xbd8279a8	-0.0637086
144	0x3ca70535	0.020388225
145	0x3d68f1fa	0.05687139
146	0x3d045a87	0.032312896
147	0x3b7d96e6	0.0038694679
148	0xbd6feeb4	-0.058577254
149	0xbd6e473c	-0.058173403
150	0x3d73d506	0.059529327
151	0xbd3b3672	-0.04570622
152	0x3dba11cf	0.09085428
153	0x3c25d5a6	0.010121739
154	0xbd6893a4	-0.056781426
155	0x3c9606a5	0.018313715
156	0x3d7f9c0b	0.062404674
157	0x3d6deb69	0.058085833
158	0x3dc1de79	0.094662614
159	0x3d9239d2	0.071399346
160	0x3cdbcf17	0.026832147
161	0xbc443fa6	-0.011978066
162	0xbd9936f1	-0.07481182
163	0x3ba52419	0.0050397036
164	0x3d65197e	0.055932514
165	0xbd348a77	-0.044077363
166	0xbd536a56	-0.05161508
167	0xbd3d3d8f	-0.046201285
168	0x3d6d93c1	0.058002237
169	0x3d29a1af	0.04141396
170	0xbc351d6b	-0.011054377
171	0x3ca1a692	0.019732747
172	0xbe0b814f	-0.13623546
173	0x3e1963ae	0.14979431
174	0xbdc58487	-0.09644418
175	0x3dce0eec	0.1006144
176	0x3dd7136b	0.105017506
177	0x3cbf3e4c	0.023345135
178	0xbdd269bc	-0.102740735
179	0xbdcd3031	-0.100189574
180	0xbdd21c47	-0.102593
181	0x3d34e1f1	0.044160787
182	0x3dcbd86c	0.099533886
183	0xbdb58bb0	-0.08864534
184	0xbbc3e0c4	-0.005977722
185	0x3db24ce0	0.08706069
186	0xbdb39707	-0.087690406
187	0x3d8da615	0.06916443
188	0x3d2a09b0	0.041513145
189	0xbcf1f748	-0.029536858
190	0x3de01339	0.109411664
191	0xbde85b4c	-0.113455385
192	0x3e5794b4	0.2105282
193	0x3e2713a1	0.16316082
194	0xbe03094d	-0.12796517
195	0x3d35f60b	0.044424098
196	0xbdb2345d	-0.08701394
197	0x3df67dec	0.120357364
198	0x3d116e4a	0.03550557
199	0x3dc0b709	0.09409911
200	0xbe373c14	-0.17894012
201	0x3da9eba5	0.08296899
202	0xbd8eda1a	-0.06975193
203	0xbd93b8d8	-0.072129905
204	0x3d47dc3d	0.04879402
205	0x3d96ac5a	0.07357092
206	0x3e238af9	0.15970983
207	0x3e4f9ae1	0.20273925
208	0x3da5a969	0.08088953
209	0xb770addd	-1.4345595e-05
210	0xbdae0611	-0.08497251
211	0xbc241362	-0.010014387
212	0xbca3de0a	-0.020003337
213	0x3e0a1a6b	0.1348664
214	0x3c568e7d	0.013095495
215	0xbd5a929c	-0.053362474
216	0xbdcf3b39	-0.10118718
217	0xbdd30029	-0.10302765
218	0xbdbbfd55	-0.091791786
219	0xbd8143c6	-0.06311755
220	0x3d68d4bb	0.0568435
221	0xbdd4dddb	-0.10393878
222	0x3e121f47	0.14269744
223	0x3da5c392	0.08093943
224	0xbe184bc5	-0.14872654
225	0xbd1f2b2a	-0.038859524
226	0xbcf5db26	-0.030011725
227	0x3e5ad6bb	0.21370976
228	0xbe5a30da	-0.21307698
229	0x3d977f45	0.073973216
230	0x3caafdcb	0.020872971
231	0xbd2e5e8d	-0.04257064
232	0xbdcca2b4	-0.09991971
233	0x3df30ad1	0.118672974
234	0xbc99cc2c	-0.018774115
235	0xbd8b2d2d	-0.06795726
236	0xbdb1fb76	-0.086905405
237	0x3ddd382c	0.108017296
238	0xbd54664b	-0.051855367
239	0xbe3e51e5	-0.18585928
240	0xbdfea82e	-0.124344215
241	0xbd989383	-0.07450011
242	0xbe434c06	-0.1907197
243	0x3e280c40	0.16410923
244	0x3e3ffcac	0.1874873
245	0x3d3402e8	0.043948084
246	0xbd27a03b	-0.040924292
247	0xbda8f7a8	-0.08250362
248	0xbdfca74b	-0.12336596
249	0xbe15c1a7	-0.14624654
250	0x3d2a553f	0.041585203
251	0xbdcc179e	-0.09965442
252	0x3db51585	0.08841995
253	0x3e260368	0.16212237
254	0xbea26a6e	-0.31721824
255	0x3dbac932	0.09120406

fc3.bias f4 [10]
0	0x3ce5f7c2	0.028072242
1	0xbdb73edd	-0.08947537
2	0xbd82845b	-0.06372901
3	0xbdaed289	-0.0853625
4	0xbca1957c	-0.0197246
5	0xbb0589e6	-0.0020376383
6	0xbdbd413c	-0.09240958
7	0x3d3ad580	0.045613766
8	0x3d5606ea	0.052252688
9	0xbda1e324	-0.07904652
